spiral_model_pytorch.pth (torch, 20671 bytes, 6 tensors)

layer_stack.0.weight f4 [64, 2]
00000000: f2de 9bbe 463c 103f 55d4 14be 4e67 4bbc
00000010: 77ce 5032 319c 5931 4703 46bf f549 9c3e
00000020: de37 a4be e953 4abf e6a7 2cbe 2787 cfbc
00000030: 78c2 04c0 da13 c9bf ffa2 99bd 4048 9abd
00000040: 4e3b 0bc0 6f98 21bf a0c0 0cbc f50f 5bbd
00000050: 49e2 69c0 3fd3 bc3f f896 8a3e d8a5 ecbd
00000060: 354c d625 ff91 a184 c2b7 b1bf 005f bbbf
00000070: cd9a 3cbf 0b6f d4be a926 0000 6500 0080
00000080: 9d92 ba3d 7fe0 a6be 318c 0940 dcc2 743f
00000090: b35f 41bf d409 173d 5213 5eb9 24c9 8438
000000a0: dbff 1dbe be8c 50bc f279 6dbe 8986 e0bc
000000b0: 1bf3 a43f 4fcb 94bf 79b1 c93e b819 4e40
000000c0: f34e 92bf adba babf 6af5 0ebf e6b1 103f
000000d0: a639 853e fd53 563f 6e25 0000 cd0a 0080
000000e0: c1e4 11bf 9535 a13d 3ada fd3e 7f40 9abe
000000f0: 7a62 653a f813 bcbe 1702 b5bf ac00 813f
00000100: 451c b0bc 1dac f8bf d44d b8bd 7b81 2d3e
00000110: 4674 e231 709b 33b2 47a5 b0b3 deae 6eb2
00000120: 5c5f 1f3f 73f2 d23f 6aa4 af3f 78d2 23c0
00000130: 4250 573f 08d6 3e3f 06a3 0fbe 9440 1ac0
00000140: 2fef 82be 0d7b 58bd e3a3 02c0 f5b0 1ec0
00000150: 2996 80bf fde5 1940 e05d bf3e 50a3 21be
00000160: 6649 f5bf 8592 6d3f bf80 753e ef69 92bd
00000170: 2805 08b5 97d2 10b4 6420 0ebf 1f5d 66bf
00000180: 0348 da3f b572 6e3f a3af ffbe 5a75 853f
00000190: 2866 cc3f 111c 23bf b29a f73e 1868 13bf
000001a0: 3c6e b7bd 024e 313e 2494 6abf d50b d7be
000001b0: f07b d18d 3880 1d80 5918 de3f 14ae d9be
000001c0: 9995 a533 390f 4cb3 d512 c137 bd99 a8b7
000001d0: c569 633f e49e a33f 2cc1 c23e c077 e7be
000001e0: 4bc4 213f 8f57 5ebe bd8e 1fbe 7a3e c6bc
000001f0: cf2d bd34 ef9f afb5 ce8e 2540 3c63 523c
-0.3044353 0.5634197 -0.14534123 -0.0124147665 1.2154138e-08 3.166644e-09 -0.7734875 0.30525175
-0.32073873 -0.79034287 -0.16860923 -0.025333 -2.0743694 -1.5709183 -0.07501792 -0.07533312
-2.1754947 -0.6312322 -0.008590847 -0.053482015 -3.6544363 1.4751967 0.27068305 -0.1155507
3.7174722e-16 -3.7984994e-36 -1.3884203 -1.4638367 -0.7367371 -0.4149097 1.3869e-41 -1.42e-43
0.091099955 -0.32593152 2.1491816 0.9560983 -0.7553665 0.036874607 -0.00021178767 6.331716e-05
-0.15429632 -0.012728868 -0.2319105 -0.027407901 1.288669 -1.1624545 0.39393213 3.2203197
-1.1430343 -1.4588219 -0.5584322 0.5652145 0.26020545 0.83721906 1.3427e-41 -3.875e-42
-0.56989676 0.07871548 0.49580556 -0.30127332 0.0008750331 -0.36733985 -1.4141263 1.007833
-0.021497855 -1.9427525 -0.089992195 0.16943924 6.5906844e-09 -1.0454514e-08 -8.2257024e-08 -1.38931835e-08
0.6225488 1.648024 1.372205 -2.559721 0.8410684 0.74545336 -0.14027032 -2.4101915
-0.25573108 -0.052851725 -2.0412529 -2.4795506 -1.0045825 2.4046624 0.37376308 -0.15784955
-1.9163024 0.92801696 0.23974894 -0.071491115 -5.067145e-07 -1.3487657e-07 -0.55518174 -0.8998584
1.7053226 0.9314378 -0.49938688 1.0426438 1.5968676 -0.637147 0.4836021 -0.5758071
-0.089565724 0.17314914 -0.91632295 -0.42001215 -1.2910456e-30 -2.709226e-39 1.735118 -0.42515624
7.710623e-08 -4.7511296e-08 2.3016162e-05 -2.009875e-05 0.88833266 1.2782865 0.38038003 -0.4520855
0.63190144 -0.21713088 -0.15581794 -0.024199713 3.5237323e-07 -1.3085063e-06 2.586841 0.012841042

layer_stack.0.bias f4 [64]
00000000: cf85 113e a974 823f a21c 90b3 36cc e7be
00000010: 3f50 0abf 521d ad3f f214 823d 8035 97bd
00000020: edc5 01be 5e3e 29bd 6136 423e cc7a 213e
00000030: 2092 69b0 70c3 efbe 6bf7 87be c5c8 6a9b
00000040: 3bf7 1abe e481 dcbd d482 83be 2ff2 84ba
00000050: 8360 8c3f cbe2 0a40 be20 cabe 5d9d 6ebe
00000060: 5b48 213e 8021 89be 6fa0 70be 63d7 e0b0
00000070: 4fcc ab3e 0f2a cb3e 7255 6fbe 1277 29bd
00000080: e613 09bf 44cf 2f3d 6a69 28b3 8f5c 1db6
00000090: 51e8 923e 4b90 a8be 62de 1fbe aee5 00bf
000000a0: 2e03 bf3d feec eebd ca9b cabe ff33 5e3e
000000b0: db05 58bf c57a ee3d 66da 7ab5 0d45 0fbf
000000c0: 5066 2ebf 641c 52bd c509 3a3e a24b 8fbe
000000d0: e545 2d3d 7c91 343e abb9 cba0 81e4 0e3f
000000e0: 49d1 04b4 0566 73bc dc8c 863e 5fb1 61be
000000f0: 358b 84be 19cf a03f 244a 04b6 93a2 82be
0.142112 1.0191852 -6.710731e-08 -0.45272988 -0.54028696 1.3524573 0.06351651 -0.07383251
-0.12673159 -0.041319244 0.18966056 0.157695 -8.497256e-10 -0.46828794 -0.26555952 -1.9420898e-22
-0.15133373 -0.10766962 -0.2568575 -0.0010142977 1.0966953 2.1700923 -0.39478105 -0.23302217
0.15750258 -0.2678337 -0.234987 -1.6359362e-09 0.33554313 0.39680526 -0.23372439 -0.04137332
-0.5354599 0.042922273 -3.921142e-08 -2.34487e-06 0.28692868 -0.32922587 -0.15612176 -0.50350463
0.09326778 -0.116662964 -0.39571983 0.21699522 -0.84383935 0.1164451 -9.345007e-07 -0.5596474
-0.68124866 -0.051296607 0.1816779 -0.2798739 0.042302985 0.17633623 -3.4512402e-19 0.5581742
-1.2369595e-07 -0.014855866 0.26279342 -0.22040318 -0.25887457 1.2563201 -1.9712688e-06 -0.2551466

layer_stack.2.weight f4 [64, 64]
00000000: 37d3 97be ddf5 153e 382a e82f 8e04 0080
00000010: d707 56af b2f9 463e f1e1 72bf af81 35ab
00000020: 437a b53e a120 0180 8cda aebf 9a32 353d
00000030: 0946 0080 f4fc 45be 722c 3bbd c80c 0000
00000040: 53e0 6bbc 6367 78bf ca68 0000 014e 8337
00000050: d5cf 203e 00a6 9c3e b2dc 20bf 17ee 8dbf
00000060: aa3f 18bf 4529 0000 3946 53ba 44cd a082
00000070: 022a c63c 6c0e e43d 2806 3d2c 901c d2be
00000080: 41ca 0dbf 8263 bdbd a0d1 0630 f6c8 0fb4
00000090: 010d 5fbe 531a 42bf fc70 bbbe 740b 25bf
000000a0: 2ff6 3c3c d7f8 963f eda9 47bd b207 7a3d
000000b0: ef31 0080 4513 073d c638 89b2 4ea5 c5bb
000000c0: d574 5dba a245 93be 21f6 303e fd56 95bd
000000d0: d866 c4bd 3b92 38be a86a 0000 0884 463e
000000e0: 8984 63b2 965a 59b9 3246 60bd 4872 55bd
000000f0: 1712 d3ba 1e9d 393e 99e7 f2b2 e03d 7bbf
00000100: fb96 5ab2 3702 02b3 5a93 6b25 4795 deb0
00000110: 6d3e a3b1 34d1 26b3 1dec a2b2 aa24 fd2f
00000120: efc4 d831 9c19 a3af 1b93 57b2 50f9 1db1
00000130: a252 0000 44b1 f431 631b 16b2 d618 0000
00000140: 19e9 c8b1 77c6 e9b2 20a1 ac31 5df5 fcad
00000150: e27e 0bb3 c316 9cb3 8f82 90b0 a212 cfb2
00000160: ccea 71b2 83b6 d1b0 eb8c c331 2b0d 0000
00000170: 3f17 4ab2 1c14 aeb1 4a95 0931 5cd4 5cb2
00000180: 8cc0 2b32 f3d0 8eb1 2648 c120 82e3 6fb9
00000190: 1e08 e3b2 cdc6 0bb2 f87d 1b33 d789 59b2
000001a0: fb37 63b1 642f a9b2 a2ed a732 e0ee b0b1
000001b0: 0bb8 c5af dcdb 53b1 8e04 2cb5 0b6a 5cb1
000001c0: b329 cc31 f052 67b2 8689 a0b1 5a9c ed30
000001d0: f66d 8db1 59b1 58b2 7b5f 0080 913a d5b1
000001e0: 68f8 75a1 659a 8a38 bebc 9ab2 eff7 1331
000001f0: b30c 5430 34d2 1eb3 5cc8 0ab5 b306 77b2
00000200: 0e9c ecbb 7896 193c bbe5 feaf d30b 0000
00000210: cc62 b13a 7667 5c3c c8ed 44be 06be e6b4
00000220: 89a9 4abc 8a91 97b6 b27d f9bd 3685 213c
00000230: 2a86 6000 22ff aebb 0afa 23ba c925 0000
00000240: 685b 113c 8177 f8bd 9808 0080 0e60 06b7
00000250: 84cf 263c 0959 bb3c a9eb c73b d818 f5bd
00000260: 2b7a f8bd 936f 0080 80c0 b2b8 0310 0000
00000270: db66 88bc eb4a af3c b859 733b ec4d d0bc
00000280: 7bd5 ac3c 2031 0ebb e1eb f82d 1188 8633
00000290: 284f 41bc c700 8c3d e74a 79bd f9da 473d
000002a0: e055 a7bb 265b 923c af10 8dbb 80ea 5e3c
000002b0: 0b2d 0080 309a 033c 8bc4 3632 638f 1b3b
000002c0: 9827 19bc 8169 d5bc 88e2 503d d42e d63c
000002d0: 63ee 0ebb b28d 47bd 1c6a 0080 c8a4 653d
000002e0: 1a81 cab0 e3af 9bb8 e834 73bb bb02 a93c
000002f0: f33b a53c 0b3e 4c3c 6b52 2230 a87e abbd
00000300: 8721 de33 33ad 42b3 bffe 1930 8467 6db1
00000310: b63b bdb3 1d7c cdb3 a1a7 93b2 959a 3532
00000320: a994 b1b3 64a9 33b2 3738 9c33 5c31 6834
00000330: 8e9a 8b0d 2e70 beb2 c852 40b3 5f1c 0080
00000340: f561 4134 f7f1 aa32 7781 a0b2 fd7f e4ba
00000350: 8ccb 58b3 e5ad 9cb4 11df 4534 5f4c 3533
00000360: 7eb0 f5b2 0e34 46b3 f911 f1b2 ab03 0180
00000370: 83b3 09b4 3523 ed33 fac1 86b2 716a dc33
00000380: 1a5a e234 f3a2 a432 bebb 2aba 7bdb 9432
00000390: 590e 9133 541b 7d33 b02a 80b3 75f0 9233
000003a0: b159 d433 081e f9b3 7d99 92b3 0eb5 8134
000003b0: 762e 0fb3 bca8 bfb3 bae8 c7b0 e600 33b3
000003c0: f1e7 90b3 e8ad 2eb4 d707 4235 74de 46b3
000003d0: 25db 10b3 704e e1b3 ea45 1fb2 f0e6 2b34
000003e0: cefb 14a4 5d60 30b5 ebbf d732 627f 9534
000003f0: 5e97 e533 8902 a4b3 d9a4 98b2 4868 ae33
-0.29653332 0.1464457 4.2230552e-10 -1.634e-42 -1.9465972e-10 0.19431189 -0.9487601 -6.448409e-13
0.3544484 -1.0354e-40 -1.3660445 0.04423771 -2.5124e-41 -0.19334775 -0.045696683 4.585e-42
-0.014396745 -0.97032756 3.7591e-41 1.565274e-05 0.15704282 0.30595398 -0.62836754 -1.1088284
-0.59472144 1.4805e-41 -0.0008059475 -2.3627704e-37 0.024189953 0.11135563 2.6861933e-12 -0.41037416
-0.5538674 -0.09247495 4.904681e-10 -1.3391022e-07 -0.21782304 -0.7582142 -0.36609638 -0.644706
0.011533304 1.179469 -0.04874604 0.061042495 -1.7913e-41 0.03297736 -1.5974717e-08 -0.0060316687
-0.000844789 -0.28764063 0.1728139 -0.07291982 -0.095899284 -0.18024532 3.8261e-41 0.19386303
-1.3243274e-08 -0.00020728479 -0.054754443 -0.05211094 -0.0016103414 0.18126342 -2.8277826e-08 -0.9814129
-1.2723599e-08 -3.0269998e-08 2.0432925e-16 -1.6195053e-09 -4.7510214e-09 -3.8840156e-08 -1.8966654e-08 4.6046483e-10
6.308816e-09 -2.9667724e-10 -1.2548095e-08 -2.2988225e-09 2.9643e-41 7.1214874e-09 -8.737376e-09 8.91e-42
-5.8472662e-09 -2.7215021e-08 5.0241766e-09 -2.8758046e-11 -3.247886e-08 -7.2684564e-08 -1.0514486e-09 -2.4106445e-08
-1.4081433e-08 -1.5258624e-09 5.6912675e-09 4.724e-42 -1.1763233e-08 -5.0663527e-09 2.0020985e-09 -1.285397e-08
9.99729e-09 -4.1564987e-09 3.2743216e-19 -0.0002287757 -2.642997e-08 -8.136067e-09 3.6203318e-08 -1.2662404e-08
-3.3064669e-09 -1.969574e-08 1.9549422e-08 -5.149431e-09 -3.5964862e-10 -3.0829517e-09 -6.408162e-07 -3.2074492e-09
5.941922e-09 -1.34648275e-08 -4.6722475e-09 1.7288457e-09 -4.116141e-09 -1.2613179e-08 -3.4252e-41 -6.205774e-09
-8.333799e-19 6.609111e-05 -1.801379e-08 2.153225e-09 7.71432e-10 -3.697842e-08 -5.170057e-07 -1.43788155e-08
-0.0072207516 0.009374253 -4.6365564e-10 4.242e-42 0.0013533472 0.013452401 -0.19231331 -4.29791e-07
-0.012369522 -4.5170937e-06 -0.121821776 0.00985842 8.864337e-39 -0.005340473 -0.0006255215 1.3555e-41
0.008871891 -0.121321686 -3.083e-42 -8.009387e-06 0.0101813115 0.022869604 0.006101091 -0.11967629
-0.12132677 -4.0025e-41 -8.523557e-05 5.744e-42 -0.016650608 0.021398028 0.0037132334 -0.025427781
0.02109789 -0.0021696761 2.8299087e-11 6.2646116e-08 -0.0117986575 0.06836086 -0.060862448 0.048792813
-0.0051066726 0.017865729 -0.0043049674 0.013605714 -1.6158e-41 0.008032367 1.0638483e-08 0.0023736588
-0.009347819 -0.026051285 0.050997287 0.026145376 -0.002180957 -0.048719116 -3.8065e-41 0.05606535
-1.4734127e-09 -7.4237374e-05 -0.0037110392 0.020631185 0.020170188 0.012465964 5.905238e-10 -0.08373767
1.0343779e-07 -4.532667e-08 5.602309e-10 -3.454688e-09 -8.81186e-08 -9.5686325e-08 -1.7189281e-08 1.05707345e-08
-8.269246e-08 -1.0457686e-08 7.2745415e-08 2.162464e-07 8.603744e-31 -2.2169925e-08 -4.4778773e-08 -1.0178e-41
1.8010162e-07 1.9900638e-08 -1.8685325e-08 -0.0017433163 -5.0476544e-08 -2.918379e-07 1.8428206e-07 4.2211806e-08
-2.8602013e-08 -4.614781e-08 -2.8064266e-08 -9.3151e-41 -1.2824425e-07 1.10425766e-07 -1.5687863e-08 1.026391e-07
4.2161338e-07 1.9166214e-08 -0.0006512961 1.7329276e-08 6.7546985e-08 5.8931008e-08 -5.968229e-08 6.842394e-08
9.888334e-08 -1.1600429e-07 -6.826574e-08 2.4159857e-07 -3.3337038e-08 -8.924823e-08 -1.45453e-09 -4.1677502e-08
-6.7477124e-08 -1.626828e-07 7.228204e-07 -4.6302787e-08 -3.3726923e-08 -1.0491647e-07 -9.270915e-09 1.600963e-07
-3.230567e-17 -6.5705336e-07 2.5116568e-08 2.7846096e-07 1.0691177e-07 -7.637306e-08 -1.7770093e-08 8.121475e-08

layer_stack.2.bias f4 [64]
00000000: 7a5f 1b3e 021e b9b2 f8de 563c 71fb 62b3
00000010: 309d ccbe 6efb 4d3e 3ba1 c7af 203d 91b7
00000020: f351 c6b4 4f9a 80b6 9f00 17bd 2c93 95ba
00000030: b6eb e5a9 2f43 c5b5 a9e0 46b3 6da9 1fb1
00000040: dbc0 093d 283c fab2 23ad 92b3 1345 b3b1
00000050: bd04 942f 7d38 44b2 e4f3 a4b3 9df4 01b2
00000060: b998 a6b8 13f9 78ba fc31 6e3e 510c ac3e
00000070: c881 b33d 7e84 4a3e ebd6 1eb2 c8aa 553e
00000080: b6cb 3d3e 1987 8fab 1dcf 9c3d a60d 88b2
00000090: d90e 88be 7e4c f2be 785c c83d bea3 0e39
000000a0: 4d8b bb3d 64dc a43e c1c8 9b2f b74e efb3
000000b0: 7d2c 8ebb e46d 243d 63cf 37ab 8579 3e37
000000c0: 9cbb d7be 6a8e bcbc 6a86 0b3e c15c a33b
000000d0: fdaa 57be 7f58 44b3 c74d 61a9 dcee 333e
000000e0: e812 c5be 07fb 3cae 433c a33d dce4 3ab4
000000f0: be34 88be 9507 99af dd75 7abe f390 243b
0.1517314 -2.155048e-08 0.013114683 -5.284841e-08 -0.39963675 0.20115444 -3.631245e-10 -1.731381e-05
-3.694e-07 -3.832661e-06 -0.036865827 -0.0011411658 -1.0210532e-13 -1.4697197e-06 -4.6304795e-08 -2.3233853e-09
0.033631187 -2.9131186e-08 -6.830148e-08 -5.2174385e-09 2.692441e-10 -1.14215455e-08 -7.6812086e-08 -7.564407e-09
-7.943944e-05 -0.0009497564 0.23261255 0.33603147 0.08764988 0.19777104 -9.245677e-09 0.20865929
0.18534741 -1.0198258e-12 0.07656691 -1.583869e-08 -0.26573828 -0.47323984 0.09783262 0.00013603174
0.09157429 0.32199395 2.833698e-10 -1.1143623e-07 -0.0043387995 0.040143862 -6.5302467e-13 1.1353176e-05
-0.42135322 -0.023017127 0.13625494 0.0049854224 -0.2106132 -4.5715293e-08 -5.0027497e-14 0.17571586
-0.38490987 -4.2969208e-11 0.079704784 -1.7405858e-07 -0.2660274 -2.7835925e-10 -0.24459024 0.002511081

layer_stack.4.weight f4 [3, 64]
00000000: f928 983f 4565 d0b2 e892 113e 2a7c 24b3
00000010: 5bbb bd3f 8dd2 f73e 2b81 c2af 3f09 a5b4
00000020: dc69 a195 5388 9939 3d8a 28be e3e8 dbb9
00000030: a54a 4028 441e b8b6 4dbe 9032 5e70 a3b1
00000040: 016f 45be ba7d 34b2 def9 95b3 a51a d6af
00000050: 1e0a 97b0 d709 84b2 a7da eeae 1253 b6b2
00000060: e5ae a331 2708 1abb b09f c3bf b21e af3f
00000070: 1e97 90be 6f8c 76bf 83d0 96af 1117 463f
00000080: 87b7 f03f 0958 0232 a6f4 2c3f a234 2abb
00000090: a2ef e5bf dda2 be3f 957f 1e3e 032b ae3a
000000a0: f428 9c3e 3921 68c0 ab2b 3eb5 aea9 abb4
000000b0: 1f0f 043b 3736 883e bece 052e e350 61b7
000000c0: b466 0dc0 ee1f 253f 933f 653e 6515 383d
000000d0: 61ba 373f 869a 9335 1136 8d2c f1ab 6dbf
000000e0: 6aff db3f 1bc4 24b5 9072 95bf f7b4 fe34
000000f0: c1a7 9e3e 424e 5230 729a abbf 5c8a e33c
00000100: 0fe2 27c0 839d 99b2 4c79 94be 8f9b 0a34
00000110: 4968 11c0 1b43 d63f a59f 2aaf df0b 4eb5
00000120: 8a38 2e0e 7976 c038 f557 8bbf 5aab 55bb
00000130: daba 2927 8391 02b5 b797 9230 4fe7 81b0
00000140: 58a8 883e 0ce6 9630 1805 6032 465e a02f
00000150: 257d 7baf dfcf 0b31 21ac d5af bb32 b3b0
00000160: 321a c2b0 c7af d9b9 247c a93f 054e 4bc0
00000170: 5ce0 95bf 79c6 943f c0aa 07ac 8edb 9c3f
00000180: ef0b 28c0 d641 53b0 7838 cfbf 8438 57b2
00000190: e4d4 8e3f 37f1 0bc0 7a14 413f a2ef 39bb
000001a0: 6fd3 463f 45af 753f 4480 cd30 2d0e 88b3
000001b0: 4be4 233a a8c2 54bf cbdd 7fac 7cc5 2f38
000001c0: 26a8 a63f bdef adbe 50e9 2b3f 3bd4 e4bd
000001d0: 4d3d 98bc 303d 61b5 a16f 562c e7bf 923f
000001e0: c383 b23f 5be7 07b3 b2c9 c2be f4ec e833
000001f0: dc39 72bd ca2b 8d2c 01d3 553f f679 60bd
00000200: b78b b43f e0ac f932 9717 1e3e 1ec6 0334
00000210: 16aa 4c3f e3f1 0cc0 0bab 0fb1 34d7 2a35
00000220: 9b0e ce19 760b a4b9 54fb a13f e7a0 793b
00000230: 3c2c 1f28 8c7c b636 5ec6 9eb2 b0dc 4531
00000240: 31f1 0dbe 6299 3832 06e5 b133 2dd8 64b0
00000250: 081d 0831 c024 9d32 df98 5230 49ef ca32
00000260: f79b 8a32 38bc 603b 7420 8f3e 4af4 e13f
00000270: 0904 b73f 4d08 96be 140d 6f2f adf7 f7bf
00000280: fc0c 3f3f ade0 0cb2 8342 6e3f 4dc9 523b
00000290: dda8 203f 2e8a 2f3f 03b9 5cbf 91d2 d83a
000002a0: 9ceb 8bbf c968 2940 ebdc 9334 ccc6 b234
000002b0: deee 24bc 9de0 1c3f 7824 14ae e320 a937
000002c0: 240f 693f bff9 9bbe f23d 53bf 5ad0 993d
000002d0: 3ab4 32bf a63d 6735 5189 6eab 306b 74be
000002e0: 5bf1 47c0 7b51 2935 9e97 c43f 22d9 fab4
000002f0: 677e a2be f0cc 42b0 11a5 013f 6c8b fb3c
1.1887504 -2.4260439e-08 0.14216197 -3.8297152e-08 1.4822801 0.48402825 -3.5380174e-10 -3.0740372e-07
-6.51944e-26 0.00029284004 -0.16458984 -0.0004194445 1.0674327e-14 -5.4871507e-06 1.6850345e-08 -4.756699e-09
-0.19280626 -1.0505966e-08 -6.983804e-08 -3.8945305e-10 -1.0989571e-09 -1.5371297e-08 -1.08618274e-10 -2.1225365e-08
4.7638076e-09 -0.0023503394 -1.5283108 1.3681242 -0.28240293 -0.96308035 -2.7432998e-10 0.77378947
1.8806008 7.587013e-09 0.67560804 -0.0025971313 -1.7963755 1.4893452 0.15478356 0.0013287965
0.30499995 -3.6270278 -7.084406e-07 -3.197469e-07 0.0020150614 0.26603863 3.0424323e-11 -1.3429878e-05
-2.2093935 0.64501846 0.22387533 0.04494228 0.71768767 1.0997326e-06 4.0134636e-12 -0.92840487
1.7187321 -6.138013e-07 -1.1675587 4.7442856e-07 0.3098736 7.6508766e-10 -1.3406508 0.027775936
-2.6231725 -1.7883172e-08 -0.28998792 1.2908843e-07 -2.27199 1.6739229 -1.5518127e-10 -7.6758255e-07
2.1474378e-30 9.177341e-05 -1.0886217 -0.0032603354 2.3554754e-15 -4.864052e-07 1.0666018e-09 -9.451727e-10
0.26690936 1.097932e-09 1.3039674e-08 2.9170816e-10 -2.2872777e-10 2.0345323e-09 -3.886678e-10 -1.3038383e-09
-1.4122803e-09 -0.0004152043 1.324101 -3.176637 -1.1709094 1.1623069 -1.927944e-12 1.2254503
-2.6257284 -7.685491e-10 -1.6189108 -1.2527497e-08 1.1158719 -2.1865976 0.7542187 -0.0028371592
0.7766637 0.95970565 1.4952168e-09 -6.335572e-08 0.0006251975 -0.8310952 -3.63608e-12 4.1907173e-05
1.3020065 -0.33971968 0.6715288 -0.11173292 -0.018583918 -8.390807e-07 3.0473196e-12 1.1464814
1.394646 -3.1642553e-08 -0.38044506 1.08464434e-07 -0.05913721 4.0123226e-12 0.8352509 -0.05480381
1.4105138 2.906603e-08 0.15438686 1.22724e-07 0.7994703 -2.2022636 -2.0906465e-09 6.3643097e-07
2.13058e-23 -0.00031289057 1.2654824 0.003809029 8.835865e-15 5.438522e-06 -1.8483828e-08 2.879272e-09
-0.13861538 1.0745085e-08 8.283864e-08 -8.325312e-10 1.9807107e-09 1.8293917e-08 7.66148e-10 2.362471e-08
1.6136239e-08 0.0034291875 0.27954447 1.7652676 1.4298106 -0.29303208 2.174157e-10 -1.937246
0.7462919 -8.200158e-09 0.9307024 0.0032163442 0.62757665 0.6857022 -0.86219805 0.0016542246
-1.0931277 2.6470206 2.7541623e-07 3.3299727e-07 -0.010066716 0.6128023 -3.3683695e-11 2.0161684e-05
0.9103873 -0.3046398 -0.82516396 0.07510443 -0.69806254 8.6143916e-07 -8.474515e-13 -0.23869014
-3.1241062 6.3075976e-07 1.535877 -4.6724114e-07 -0.31737062 -7.086802e-10 0.50642496 0.03070613

layer_stack.4.bias f4 [3]
00000000: 613d 943d ad63 43be b187 c03d
0.072382696 -0.19080992 0.09400881
