NeuralNetBenchmarking/spiral_model_pytorch_script.pt (torch, 29988 bytes, 6 tensors)

weight f4 [64, 2]
0	0xc0114206	-2.2696548
1	0x3e8225bd	0.25419417
2	0xbf664646	-0.8995098
3	0x3e3bd82f	0.18344186
4	0xbf25d70b	-0.64781255
5	0x402ab23c	2.6671286
6	0x31ed67b8	6.9093993e-09
7	0xb2d15c36	-2.4372735e-08
8	0xbca59547	-0.020212783
9	0x3c0393b3	0.00803082
10	0x8289a2a3	-2.022369e-37
11	0x087d749c	7.627149e-34
12	0x3ec635ad	0.38712826
13	0x3f7d22f6	0.9888147
14	0x401318c0	2.2983856
15	0x3c66aa0b	0.014078627
16	0xbd794483	-0.060856353
17	0xbc3af2cc	-0.011410426
18	0x3f9ee24c	1.241281
19	0x3f3d3d83	0.73921984
20	0xbfea10a7	-1.8286332
21	0xbf467a81	-0.77530676
22	0xbf879a57	-1.0593976
23	0xbe928561	-0.28617385
24	0x3f734916	0.95033395
25	0x406984ab	3.6487224
26	0xbfb24c99	-1.3929626
27	0x3c1dd524	0.009633336
28	0x00000231	7.86e-43
29	0x8000201d	-1.152e-41
30	0xbda67d46	-0.08129363
31	0xbcbcd057	-0.023048563
32	0xbf232023	-0.6372091
33	0x3f31ad57	0.6940512
34	0x2e69a5d6	5.312536e-11
35	0x2f99d330	2.7980596e-10
36	0xb06c0843	-8.586804e-10
37	0xb2bae08b	-2.175536e-08
38	0x3f00d582	0.5032579
39	0xc037962f	-2.8685415
40	0xbfb0d8fe	-1.3816221
41	0x3f485c93	0.7826626
42	0xbfb6b12a	-1.4272816
43	0x3f54022a	0.828158
44	0x3f89215d	1.0713307
45	0x3f1ea663	0.61972636
46	0xbecd8a5c	-0.40144622
47	0xbfbbd62e	-1.4674737
48	0xbf65cc59	-0.89764935
49	0xbf601524	-0.8753226
50	0x9e7c9f11	-1.3373663e-20
51	0x9939eae4	-9.611712e-24
52	0x86195d06	-2.8844445e-35
53	0x89815afb	-3.1141178e-33
54	0x3fdcf987	1.726365
55	0xbb453f7f	-0.003009766
56	0x000016ce	8.181e-42
57	0x800003cb	-1.36e-42
58	0xbfd2d039	-1.6469795
59	0xc0085369	-2.130091
60	0x00001c8c	1.024e-41
61	0x000027ea	1.4318e-41
62	0xbd67ddbe	-0.056607954
63	0xbc035d21	-0.008017809
64	0x80002964	-1.4848e-41
65	0x000007d7	2.812e-42
66	0x36fc0feb	7.5120383e-06
67	0x3694bb49	4.4325466e-06
68	0x3fe41bb2	1.7820952
69	0xc002e10f	-2.0449865
70	0xc01f62f8	-2.4904156
71	0xbe588414	-0.21144134
72	0xbf403651	-0.7508288
73	0xbf022b7e	-0.50847614
74	0x000026df	1.3944e-41
75	0x80000214	-7.45e-43
76	0x3c40a60d	0.01175834
77	0x3fa0403f	1.2519606
78	0xbd8aaa20	-0.0677073
79	0xbf8f7790	-1.1208363
80	0x3f6b2764	0.9185698
81	0x3f21163c	0.6292455
82	0x400d45c4	2.2073832
83	0xc00a6d72	-2.16293
84	0xbfbaf1d7	-1.4605054
85	0xbdf92f5a	-0.12167235
86	0x3f0b4df2	0.5441581
87	0x3f191d2d	0.59810144
88	0x06322834	3.3507616e-35
89	0x0ee0e03f	5.5436204e-30
90	0x3357c7fd	5.0240477e-08
91	0x33af3761	8.159146e-08
92	0xbd4d6441	-0.050144438
93	0x3d8c93cb	0.06864127
94	0x80001b3a	-9.767e-42
95	0x00001a28	9.383e-42
96	0x00000bba	4.207e-42
97	0x800015a1	-7.759e-42
98	0xbff9543a	-1.9478829
99	0xbe241aed	-0.16025896
100	0x3fe077e4	1.7536588
101	0x3dabe705	0.08393673
102	0x3fcf81a4	1.6211438
103	0xbf64f0f7	-0.89430183
104	0xbf8b17e7	-1.086667
105	0xbf840d5d	-1.0316578
106	0x80000f86	-5.569e-42
107	0x000026a5	1.3863e-41
108	0xbf302b43	-0.6881601
109	0xbe0ffea8	-0.14061987
110	0xbe6b78d2	-0.22995308
111	0xbc203c97	-0.009780071
112	0x0000295a	1.4834e-41
113	0x00001a75	9.491e-42
114	0xc02229ad	-2.5337937
115	0xbfbacfeb	-1.4594702
116	0xbdb6bb9c	-0.089225024
117	0x3f312b83	0.6920702
118	0xbf824150	-1.0176182
119	0x3fb8e0e1	1.4443628
120	0xbf74d6ab	-0.9564006
121	0xbfee94db	-1.8639177
122	0xbd962e5c	-0.07333061
123	0xbc9830c2	-0.018577937
124	0x3e8997df	0.2687368
125	0xbead07d6	-0.3379504
126	0xbdd5859c	-0.104258746
127	0xbd2dd7af	-0.04244202

bias f4 [64]
0	0xbdef2c48	-0.11678368
1	0xbf1b66cc	-0.6070373
2	0xbe1e5f0e	-0.15465948
3	0xb46b872d	-2.1935257e-07
4	0x3ecbfa8a	0.39839584
5	0xb4e900fb	-4.3400345e-07
6	0xbeedf350	-0.46474695
7	0xbeb59224	-0.3546306
8	0x3f7ac873	0.9796211
9	0xbeecc8b0	-0.46246862
10	0x3eb3dc35	0.35128942
11	0xbf1fcebc	-0.62424827
12	0xbe7f27fe	-0.249176
13	0x3f854a3d	1.0413281
14	0x9b6edada	-1.9757613e-22
15	0x3faca0f5	1.348662
16	0xbeaa1f04	-0.33226788
17	0xb97e1b52	-0.00024233505
18	0xb45ceeb7	-2.057594e-07
19	0xbe28fe3b	-0.16503231
20	0xbe380fd4	-0.17974788
21	0x3ddb6fd8	0.10714692
22	0x3d83a2b5	0.06427518
23	0xbe9d8975	-0.30768934
24	0xbf34d95e	-0.70644176
25	0xb7d416e0	-2.5283021e-05
26	0xb210b7d9	-8.423705e-09
27	0xbf231cfc	-0.637161
28	0x9b4c8908	-1.6918762e-22
29	0x3e57cf2e	0.21075127
30	0xa9af583c	-7.7868674e-14
31	0x3f6d297e	0.9264144
32	0x8c4e9db9	-1.5917126e-31
33	0xb846628f	-4.729867e-05
34	0x3e008c6f	0.12553571
35	0x3dbbfa9a	0.09178658
36	0x3f1ab352	0.6042987
37	0xb360bab2	-5.2323863e-08
38	0x3f169043	0.58813876
39	0xbf0fe9f9	-0.5621639
40	0x3e438ca6	0.19096622
41	0xbe83a05e	-0.25708288
42	0x3d61fe60	0.05517423
43	0x3eec75a6	0.4618351
44	0xb38ae504	-6.4677835e-08
45	0xb46161bb	-2.0990312e-07
46	0xbd254544	-0.04034926
47	0xb01fcdb5	-5.813619e-10
48	0xa26d6d10	-3.2177227e-18
49	0x3d975731	0.07389677
50	0xbf8c4cee	-1.0960977
51	0xbede0540	-0.4336338
52	0xbf5c74aa	-0.86115515
53	0x9a31d622	-3.6775717e-23
54	0xbe25ef62	-0.16204599
55	0xbdaffb0b	-0.085928045
56	0xa8226fb6	-9.01703e-15
57	0xbe0f289c	-0.13980335
58	0xbea2950b	-0.31754336
59	0xbece78a7	-0.40326425
60	0xbdb3c23a	-0.0877728
61	0x3f95ab16	1.1692836
62	0xbddb8bdc	-0.107200354
63	0x3fd74e27	1.6820725

weight f4 [64, 64]
0	0x31f10f9a	7.015797e-09
1	0x330d9fa5	3.2974317e-08
2	0xb1a83a2d	-4.8960573e-09
3	0x800011fd	-6.453e-42
4	0xb45c8f30	-2.0541188e-07
5	0x9a1a1936	-3.186682e-23
6	0x2fe494e7	4.157876e-10
7	0xb05fe574	-8.1453e-10
8	0xb5a2f33b	-1.214073e-06
9	0xae17b2c9	-3.4492218e-11
10	0xb0f0debc	-1.7525603e-09
11	0xb0c15e39	-1.4069378e-09
12	0x348dcd04	2.6412465e-07
13	0xb2c94058	-2.342874e-08
14	0x00001cfe	1.04e-41
15	0xb62594e1	-2.4673575e-06
16	0x30fb8810	1.8301325e-09
17	0x00002aed	1.5399e-41
18	0x2647a334	6.9263176e-16
19	0x3092cf06	1.0681738e-09
20	0xb18af104	-4.043729e-09
21	0x31416ec9	2.814817e-09
22	0xb354294c	-4.9397656e-08
23	0x3226c980	9.7082875e-09
24	0xb284c74a	-1.5457449e-08
25	0x800017e2	-8.568e-42
26	0xa283bff0	-3.5710843e-18
27	0xae7dbb79	-5.769205e-11
28	0x9e7f994d	-1.35312895e-20
29	0x3222aebe	9.469373e-09
30	0x88e6eb5e	-1.3897956e-33
31	0xb588a46c	-1.0180643e-06
32	0x8000053b	-1.876e-42
33	0x3431cdf0	1.6559329e-07
34	0xb13131f7	-2.5785292e-09
35	0x3202c358	7.611412e-09
36	0xb2caf0dd	-2.3625427e-08
37	0x80001d1a	-1.044e-41
38	0xb4e7f588	-4.320575e-07
39	0xb183335d	-3.818441e-09
40	0xb437854d	-1.7091698e-07
41	0x2d8f030f	1.6258576e-11
42	0x317b63b7	3.6581989e-09
43	0xb0cf8445	-1.5098826e-09
44	0xa149fa02	-6.843233e-19
45	0xba35d7ec	-0.0006936777
46	0xb430b1e3	-1.6455992e-07
47	0x0000b680	6.5469e-41
48	0x0000258b	1.3468e-41
49	0xb10af091	-2.021839e-09
50	0xafe48c30	-4.1572568e-10
51	0xaccd172e	-5.829024e-12
52	0xb14f01f3	-3.0123573e-09
53	0x80002825	-1.4401e-41
54	0x3091f6bf	1.0620268e-09
55	0xabeb9ae9	-1.674075e-12
56	0x89188c47	-1.8362293e-33
57	0x30802854	9.324688e-10
58	0x2f70d1d5	2.190242e-10
59	0xb06ce237	-8.617777e-10
60	0x2ef4e3d8	1.11363085e-10
61	0xb5ebce4d	-1.7568906e-06
62	0xade5d5d5	-2.6129246e-11
63	0xb682b954	-3.895877e-06
64	0xaf811eab	-2.3486754e-10
65	0xb0348e07	-6.568545e-10
66	0x307751a4	8.9974095e-10
67	0x20324f4e	1.5103426e-19
68	0xaf3400b2	-1.6371152e-10
69	0x80001156	-6.219e-42
70	0x2fc94e77	3.661744e-10
71	0xb0aba5fe	-1.2489065e-09
72	0xafcc561e	-3.7168574e-10
73	0xb08561e8	-9.70485e-10
74	0xb0278ac0	-6.095142e-10
75	0xb1736275	-3.541712e-09
76	0x2fc68898	3.6113046e-10
77	0xaf98616b	-2.7717859e-10
78	0x800016c1	-8.163e-42
79	0xb014f55e	-5.4190774e-10
80	0x2e9ea07b	7.213515e-11
81	0x0001434e	1.1598e-40
82	0x2356f6c9	1.1653222e-17
83	0xb0ef5733	-1.7414322e-09
84	0x2d13e03d	8.4057735e-12
85	0xae0c41ad	-3.1890646e-11
86	0xaf3092e7	-1.6059297e-10
87	0xb13408dd	-2.6198486e-09
88	0xb1e80dcf	-6.7536585e-09
89	0x80001f83	-1.1304e-41
90	0x800007c5	-2.787e-42
91	0xb08bff10	-1.0186074e-09
92	0x80000c0f	-4.326e-42
93	0xb2825bdf	-1.517577e-08
94	0x800006bb	-2.414e-42
95	0xafbfbe2c	-3.4877823e-10
96	0x00002611	1.3656e-41
97	0xb8998a86	-7.3214105e-05
98	0xb0e21022	-1.6448249e-09
99	0xb027753b	-6.092084e-10
100	0xafaf656e	-3.1904385e-10
101	0x800023f4	-1.2898e-41
102	0x2e0e96ce	3.2421003e-11
103	0xb1a36d0b	-4.756321e-09
104	0xaf64cea9	-2.08099e-10
105	0xb180de75	-3.7505807e-09
106	0xaff5496e	-4.4617415e-10
107	0xb39e8b4b	-7.3827856e-08
108	0x800003a9	-1.313e-42
109	0x3b098887	0.0020985918
110	0x384c94d4	4.8775997e-05
111	0x00000a99	3.802e-42
112	0x8000101e	-5.782e-42
113	0xb00c7cc0	-5.1108984e-10
114	0xb0b7676d	-1.3344398e-09
115	0xb156b4d2	-3.1243883e-09
116	0xb1ee2144	-6.9304935e-09
117	0x00002ea1	1.6727e-41
118	0xaf1c1ab9	-1.4197611e-10
119	0xaf272ea9	-1.5205139e-10
120	0x00002281	1.2378e-41
121	0xb09db836	-1.1475609e-09
122	0xadcefe0d	-2.353231e-11
123	0x2fb06163	3.208341e-10
124	0xb09c7ee7	-1.1386562e-09
125	0xaffe17e5	-4.621931e-10
126	0xb059c910	-7.9229867e-10
127	0xb047397d	-7.2477474e-10
128	0xba91b4c6	-0.0011116497
129	0xb6dc9cfa	-6.5747854e-06
130	0xb946bf43	-0.00018954002
131	0xab5dbcbb	-7.877689e-13
132	0xb80435c2	-3.152132e-05
133	0x000018e8	8.935e-42
134	0xb9cbd800	-0.0003888011
135	0xb85a7153	-5.208079e-05
136	0xb9bb07b0	-0.00035673147
137	0x3a2edd6a	0.00066705665
138	0xb9c2ab33	-0.00037130117
139	0x39b196b4	0.00033872353
140	0xb91771d2	-0.00014442884
141	0xba34d584	-0.00068982714
142	0x80001073	-5.901e-42
143	0xba60aa34	-0.0008570284
144	0xb74404ec	-1.1683656e-05
145	0x2482bde3	5.6700194e-17
146	0x2bb1548e	1.2600075e-12
147	0xbb09a9b6	-0.0021005697
148	0xba3e65dd	-0.00072631036
149	0x39cc246d	0.0003893705
150	0xb989b572	-0.00026265864
151	0xbaa8612f	-0.0012846346
152	0x38c74d76	9.503488e-05
153	0x000002d3	1.013e-42
154	0x00001355	6.935e-42
155	0xb9dd7710	-0.00042241113
156	0x80003510	-1.9035e-41
157	0xba88ff03	-0.0010451976
158	0x000031c0	1.7847e-41
159	0xb9867e84	-0.00025652733
160	0x8000001e	-4.2e-44
161	0x3689691f	4.095156e-06
162	0xba34e29c	-0.00069002225
163	0x39d4c5a5	0.00040583048
164	0xba76d662	-0.0009416101
165	0x80000408	-1.446e-42
166	0x3a12012d	0.0005569633
167	0xb98dd82f	-0.00027054685
168	0xb9696f7f	-0.00022262147
169	0xb9971922	-0.0002881969
170	0xba4bd4ce	-0.0007775546
171	0x3aef1392	0.0018240085
172	0x8000090b	-3.244e-42
173	0xb88daf5d	-6.756068e-05
174	0x3885e311	6.3842286e-05
175	0x8000490f	-2.6208e-41
176	0x800006a7	-2.386e-42
177	0xb9745cf5	-0.00023304283
178	0x39d62ab5	0.0004084908
179	0xba64e756	-0.00087319815
180	0xb97ae3a9	-0.00023926668
181	0x000044d6	2.4694e-41
182	0xb9aefd61	-0.00033376648
183	0xb84df6a8	-4.9105525e-05
184	0x800019a7	-9.202e-42
185	0xba2a6f64	-0.0006501584
186	0xb84deb6c	-4.9095062e-05
187	0xba14bf6e	-0.0005674277
188	0xbb1957b3	-0.002339822
189	0xba2bf501	-0.0006559641
190	0xb9241192	-0.00015646804
191	0xbabf1bed	-0.0014580466
192	0x36938a56	4.397046e-06
193	0xb8ef9fc7	-0.00011426169
194	0x376e9ed6	1.4222887e-05
195	0xa8819286	-1.4385421e-14
196	0xb51b4196	-5.783744e-07
197	0x8f8e3cdc	-1.4025723e-29
198	0xb82f673f	-4.1819407e-05
199	0xb53543e8	-6.752657e-07
200	0xb5aa2858	-1.2677729e-06
201	0xb7b02544	-2.0998188e-05
202	0x356cd828	8.82314e-07
203	0x3534b932	6.732472e-07
204	0x36ad9932	5.173636e-06
205	0xb5a2e591	-1.2136753e-06
206	0x0000120d	6.475e-42
207	0xb5c1993c	-1.4424218e-06
208	0x399a9862	0.00029486703
209	0x00007126	4.059e-41
210	0xa94599db	-4.3876236e-14
211	0xb5a336f0	-1.2160435e-06
212	0x35b63ba9	1.357742e-06
213	0x3715759a	8.908473e-06
214	0xb56b7bb6	-8.7724345e-07
215	0xb57247bd	-9.025642e-07
216	0xb56982a7	-8.698939e-07
217	0x00000ac2	3.859e-42
218	0x908054f8	-5.0618013e-29
219	0xb5151305	-5.55345e-07
220	0x923e74c8	-6.0097373e-28
221	0xb78ed9bc	-1.702911e-05
222	0x8000090f	-3.25e-42
223	0xb5a4f5d9	-1.2290503e-06
224	0x8000113e	-6.185e-42
225	0xb6adb225	-5.1765405e-06
226	0x3503cc19	4.9098304e-07
227	0x37076290	8.069575e-06
228	0xb557077b	-8.0104627e-07
229	0x0938e4ce	2.2255778e-33
230	0xb560c6fb	-8.373606e-07
231	0x34cc3423	3.8035895e-07
232	0xb52e007c	-6.4820756e-07
233	0xb5b3f4d8	-1.3407798e-06
234	0x36c758fa	5.9410204e-06
235	0x36e5fc19	6.85408e-06
236	0x9b56043c	-1.7703033e-22
237	0xb4c00f0a	-3.577373e-07
238	0xb719e6dd	-9.173263e-06
239	0x06b67e7f	6.864666e-35
240	0x800020bd	-1.1744e-41
241	0x371b1b44	9.245068e-06
242	0xb64bc71a	-3.036525e-06
243	0xb574b528	-9.11607e-07
244	0xb6274e5f	-2.4930557e-06
245	0x00000bfd	4.3e-42
246	0x344f295a	1.9293421e-07
247	0xb7fcc89e	-3.013416e-05
248	0x800025c0	-1.3542e-41
249	0xb560f3b5	-8.3801143e-07
250	0xb81eb107	-3.7835005e-05
251	0x36686199	3.4627503e-06
252	0xb5779bef	-9.2241584e-07
253	0xb5ba00b6	-1.3858287e-06
254	0xb48c4f65	-2.61348e-07
255	0xb5c0abb0	-1.4355082e-06

bias f4 [64]
0	0xb5fa5218	-1.8650344e-06
1	0xafe97673	-4.2466616e-10
2	0xba37f506	-0.00070174073
3	0xb582ce7e	-9.745852e-07
4	0xb522fc7f	-6.0717133e-07
5	0x3ebc3fdd	0.36767474
6	0xabc81bd7	-1.4218582e-12
7	0xbeb7c909	-0.35895565
8	0xb5cb9031	-1.5166644e-06
9	0xbed567dd	-0.41680804
10	0xbbf6700c	-0.0075206812
11	0xb0202a3d	-5.8267685e-10
12	0xb73590c9	-1.0822151e-05
13	0xb07888bf	-9.04162e-10
14	0xaf08b5c2	-1.2433701e-10
15	0x3d581071	0.052750055
16	0xb59ccb3b	-1.1682054e-06
17	0xb3259a2e	-3.8557282e-08
18	0xbdce0e3c	-0.10061309
19	0x301cae27	5.6999955e-10
20	0xb19d1428	-4.571593e-09
21	0xbebc4099	-0.36768034
22	0xb60182c8	-1.9298623e-06
23	0xb5e998c6	-1.7404316e-06
24	0xb8b2a997	-8.51929e-05
25	0x319e39e8	4.6049884e-09
26	0xbe9cfae7	-0.30660173
27	0xba35cfcb	-0.00069355656
28	0x2fb7731b	3.3369293e-10
29	0xbebfdf4f	-0.37475058
30	0xac2792fb	-2.3813718e-12
31	0xb0fd4615	-1.8428091e-09
32	0x3e2c5797	0.16830288
33	0xb3a321a7	-7.5964e-08
34	0x37d1d9db	2.5016188e-05
35	0xa63e1df9	-6.596011e-16
36	0xaec54406	-8.970606e-11
37	0x3e9c7e6e	0.30565208
38	0xb127db35	-2.4426303e-09
39	0xbe1630f9	-0.14667119
40	0x3e2e2bb2	0.17008856
41	0xb2eea559	-2.7782038e-08
42	0xbe6cd410	-0.2312777
43	0xbe40dff8	-0.18835437
44	0x3d557b24	0.05211939
45	0x3e3123ca	0.17298809
46	0xbbf1b140	-0.007375866
47	0xb774075e	-1.4545249e-05
48	0xac321a5f	-2.530996e-12
49	0x3eaf155f	0.34195992
50	0x3ec490ed	0.3839182
51	0xba4c4ae9	-0.0007793145
52	0x3398d0b8	7.116017e-08
53	0x2eee97d6	1.08499584e-10
54	0x3e039b3a	0.12852183
55	0xb5f0a1a4	-1.7928437e-06
56	0xb5a505c9	-1.2295142e-06
57	0xbd48d5d1	-0.049032036
58	0xb160c96e	-3.271079e-09
59	0xb95664d8	-0.00020446198
60	0x35207dd3	5.9787743e-07
61	0xb1f2551d	-7.0528032e-09
62	0x3e2f9d21	0.17149784
63	0xb6a6184b	-4.9500136e-06

weight f4 [3, 64]
0	0xb0dc6fb9	-1.603886e-09
1	0xb201ac6e	-7.547994e-09
2	0xbb03e317	-0.002012437
3	0x3603bed0	1.9631589e-06
4	0xb5e2ebc3	-1.6906928e-06
5	0x3f968c76	1.1761615
6	0xb5d07ecc	-1.553411e-06
7	0x3f4b4170	0.79396725
8	0xb51c03a1	-5.811981e-07
9	0x402f3fa1	2.7382586
10	0xbcbeb5cd	-0.023280049
11	0x16ee0dc9	3.8459673e-25
12	0x349ab39a	2.8815413e-07
13	0xb0bfe990	-1.3963461e-09
14	0xafbb13a2	-3.4029052e-10
15	0x3fb0b3b1	1.3804837
16	0xb7dbe295	-2.6212345e-05
17	0x300ad718	5.0509774e-10
18	0x3d7e7c9d	0.06213056
19	0x3b9d4474	0.00479942
20	0x2f4e6351	1.8770875e-10
21	0x3fa619ed	1.2976662
22	0x369000db	4.291634e-06
23	0xb64347c3	-2.9099035e-06
24	0x3ad0c83c	0.0015928815
25	0x32e00636	2.6079856e-08
26	0x3ef4690d	0.47736397
27	0xba4b21c4	-0.0007748867
28	0x307c276d	9.1733093e-10
29	0xc0289ab3	-2.634442
30	0xab505a89	-7.4022087e-13
31	0x2f8cf260	2.563807e-10
32	0x3f989c92	1.1922781
33	0xaa2208d5	-1.4391555e-13
34	0xba06c34d	-0.00051407964
35	0x1d618992	2.9849624e-21
36	0xb1aac58d	-4.97011e-09
37	0x3ea41d67	0.32053682
38	0xb191d836	-4.2446358e-09
39	0xbff895ca	-1.9420712
40	0x3fc5451a	1.5411713
41	0xacae90bf	-4.9614475e-12
42	0x3de8a6bc	0.11359927
43	0xbf3282a8	-0.69730616
44	0xbfbced66	-1.4759948
45	0x3f8e807b	1.1132959
46	0xb83c930c	-4.495964e-05
47	0xb884d179	-6.333268e-05
48	0xb724f6a9	-9.832592e-06
49	0xc0514057	-3.269552
50	0x3d632bfa	0.05546186
51	0x3b68b81d	0.003551013
52	0xb5fdaaca	-1.8899675e-06
53	0x314b5491	2.9588458e-09
54	0x3ee8120c	0.4532627
55	0xb5c5c097	-1.4733695e-06
56	0x30a1f831	1.1784832e-09
57	0x3f145236	0.57937944
58	0xae91f45e	-6.637245e-11
59	0xb8e3f0c5	-0.0001086905
60	0xb68276c9	-3.8881303e-06
61	0xb1647d73	-3.3249676e-09
62	0x3f917439	1.1363593
63	0x36e2dd03	6.761054e-06
64	0xb22a8b20	-9.926936e-09
65	0xb075aece	-8.9378893e-10
66	0xba3beace	-0.00071684725
67	0xb72be750	-1.0246251e-05
68	0xb53823d4	-6.859748e-07
69	0x3f638adb	0.8888375
70	0x30108e5e	5.258921e-10
71	0xbfdb46f6	-1.713103
72	0xb56350dd	-8.468176e-07
73	0xc0456a6e	-3.084621
74	0xbdfe43b8	-0.1241526
75	0x172df1d0	5.6204525e-25
76	0x38501a75	4.9615704e-05
77	0x31b74a41	5.3344427e-09
78	0xae2a0775	-3.8660148e-11
79	0xbfac0ef6	-1.3442066
80	0x379da1c2	1.8791183e-05
81	0xae9ca404	-7.123194e-11
82	0x3ed7b3f5	0.42129484
83	0xaf45eb57	-1.8000655e-10
84	0x3124fce7	2.40089e-09
85	0x3f7cf3a5	0.9880927
86	0xb70c5c15	-8.36609e-06
87	0xb5f50752	-1.8256053e-06
88	0xbac9c6e7	-0.001539436
89	0x30c661c5	1.4434184e-09
90	0x3f3d8718	0.7403426
91	0x312fd0f5	2.558463e-09
92	0xad10c094	-8.228213e-12
93	0x4007d2b2	2.1222348
94	0x2ccefe96	5.883137e-12
95	0xb094f224	-1.0837238e-09
96	0xc03ef9af	-2.9839895
97	0xaa1c088c	-1.3858549e-13
98	0xae00cdbc	-2.928656e-11
99	0x064a2f79	3.8026855e-35
100	0xb179fa1d	-3.6376442e-09
101	0x400f6661	2.2406237
102	0x2fbf9459	3.4848105e-10
103	0x3f8af700	1.0856628
104	0xc018c2b5	-2.386884
105	0x2ab681ed	3.2419849e-13
106	0x3f9eb68d	1.239946
107	0x3fc33edd	1.5253559
108	0x3f22e333	0.6362793
109	0xc00e8dcd	-2.2274048
110	0xb003df78	-4.797509e-10
111	0x38420c69	4.6264762e-05
112	0x31b46b89	5.250915e-09
113	0x3fa2880d	1.2697769
114	0xbffb89fc	-1.9651484
115	0x3b07596b	0.0020652662
116	0x362eb126	2.6031134e-06
117	0xb14b06d0	-2.954426e-09
118	0x3f339b70	0.70159054
119	0xb6b967bc	-5.525506e-06
120	0xb1c02e0e	-5.5931713e-09
121	0xbfbba20a	-1.4658825
122	0xaedb20bd	-9.9647825e-11
123	0xb90a9422	-0.0001321589
124	0x36de3b58	6.623024e-06
125	0x2fe6bb68	4.1969916e-10
126	0x3fb4e58c	1.4132552
127	0xb6e47562	-6.8085947e-06
128	0x31b6c015	5.3187343e-09
129	0x31e945e0	6.7891364e-09
130	0x3ab9442b	0.0014134696
131	0x3734271d	1.0737943e-05
132	0x361256bb	2.180618e-06
133	0xbfe870bb	-1.8159403
134	0xb6323932	-2.655736e-06
135	0x3f324a91	0.6964503
136	0x350bfb0e	5.214687e-07
137	0x3f292244	0.6606791
138	0x3e407a2e	0.18796608
139	0x993c2d08	-9.728466e-24
140	0xb7b0da1b	-2.1082398e-05
141	0xb0eed6bd	-1.7377811e-09
142	0x300a352b	5.0279664e-10
143	0xbc86a007	-0.016433729
144	0xb6bdb26a	-5.653409e-06
145	0xb0bd43f4	-1.3770873e-09
146	0xbefa433d	-0.48879424
147	0x3b0b023c	0.0021211049
148	0xb0ae9ab5	-1.2704137e-09
149	0xc01378dc	-2.3042517
150	0x367a3c64	3.7288055e-06
151	0x354b6eaa	7.578443e-07
152	0xba32be97	-0.0006818561
153	0xb4110a39	-1.3507896e-07
154	0xbf9e66ab	-1.2375082
155	0x3ad980a7	0.0016594128
156	0xaf10bd8c	-1.3164064e-10
157	0x3f04b23f	0.5183448
158	0xac142ad8	-2.1055848e-12
159	0xb0ff3cbf	-1.8570957e-09
160	0x3fe28e84	1.7699742
161	0x2b073069	4.8028817e-13
162	0x3a01efb5	0.00049566786
163	0x144ef506	1.04486645e-26
164	0x3181cf8e	3.7779904e-09
165	0xc0229a42	-2.5406651
166	0x317f8b5c	3.71866e-09
167	0x3f40eb64	0.7535918
168	0x3f5e05e5	0.86727744
169	0xac67ec26	-3.2958163e-12
170	0xbfaeb329	-1.3648425
171	0xbf4ac1f5	-0.79202205
172	0x3f4fb423	0.8113424
173	0x3f8bbc75	1.0916888
174	0x396e5ffd	0.00022733207
175	0x379e89b8	1.8899198e-05
176	0xb74fe0af	-1.2390475e-05
177	0x4004bd1d	2.0740426
178	0x3fd96a46	1.6985557
179	0xbbba6339	-0.005688098
180	0xb522f007	-6.069899e-07
181	0xb0605342	-8.160904e-10
182	0xbf92f5f0	-1.1481304
183	0xb75e92fc	-1.3266454e-05
184	0x319dc3d6	4.5915654e-09
185	0x3f6c901a	0.9240738
186	0x2f25d0af	1.5080802e-10
187	0x39447de1	0.0001873891
188	0xb5d079d8	-1.5532669e-06
189	0x3135d08c	2.6457512e-09
190	0xc024719b	-2.569434
191	0x36a45b1e	4.8981883e-06

bias f4 [3]
0	0xbdeb0b60	-0.11476779
1	0x3abf721f	0.0014606154
2	0x3dfc00bd	0.12304828
