NeuralNetBenchmarking/spiral_cnn_model.pth (torch, 23411 bytes, 10 tensors)

conv_block1.0.weight f4 [16, 2, 1]
000000 e7 57 db 3c 29 04 6e bd 60 45 4b 40 39 48 09 be
       0.026775314 -0.058109436 3.1761093 -0.13406457
000010 cc 4c 5a b3 ae a7 28 34 b1 ee a4 3f 9c 2a 02 c0
       -5.0826927e-08 1.5707221e-07 1.2885343 -2.0338507
000020 82 09 3a bb e2 20 c8 b9 1e 78 bd 3f 3f 97 31 c0
       -0.0028387015 -0.00038171472 1.4802282 -2.7748563
000030 c2 2d 0d be 3e 6a bf 3a 4c 44 38 3f 04 ad 47 40
       -0.13786986 0.0014603806 0.7197921 3.119935
000040 8c 1a 27 40 82 44 83 3e a8 84 bc bf 76 c9 1e c0
       2.6109953 0.25638205 -1.4727983 -2.4810462
000050 b4 5e ef bf 99 3e bd 3f 06 ab 28 c0 35 eb 81 bf
       -1.8700776 1.4784728 -2.6354384 -1.0149904
000060 cd a8 8a 24 e4 5a 19 19 9d 59 00 80 58 bc 00 00
       6.013392e-17 7.92827e-24 -3.2147e-41 6.7565e-41
000070 28 d6 1b b5 bd 60 43 af 06 7c ee 3e de c2 8b bf
       -5.805364e-07 -1.7769515e-10 0.46578997 -1.0918844

conv_block1.0.bias f4 [16]
000000 55 fe 42 be 45 2a 29 3e ab 1b 40 b5 33 98 54 bf
       -0.19042332 0.16520031 -7.1565836e-07 -0.8304474
000010 6b a9 56 bc ce 3d 49 be 19 d5 63 be 29 18 e4 3e
       -0.013101916 -0.19652483 -0.22249259 0.44549683
000020 9c 12 81 bd 85 34 7f be 1b 15 b5 be b9 f5 f7 3c
       -0.063023776 -0.24922378 -0.35367665 0.030268537
000030 c4 4c 2d b4 9f db cb b5 13 3c d6 bb 71 c7 62 3f
       -1.6139808e-07 -1.5188597e-06 -0.006537923 0.88585573

conv_block2.0.weight f4 [32, 16, 1]
000000 3f 69 a4 33 6f 75 02 bf 19 e3 b2 2f c9 4b bb bd
       7.655989e-08 -0.5096044 3.2539374e-10 -0.09145314
000010 9c fd 7c a7 e5 82 59 bd 96 16 e7 ba 30 fc 9f bc
       -3.5109507e-15 -0.053103346 -0.0017630633 -0.019529432
000020 9d 59 fa bd fc fa 10 3a 12 44 84 be 4a 11 01 bf
       -0.122241236 0.00055305636 -0.25833184 -0.50417006
000030 b6 b7 00 80 d8 96 00 80 34 ba 00 00 cf 2d a3 3e
       -6.5903e-41 -5.4113e-41 6.6797e-41 0.31870887
000040 ea 1c 89 3a 72 bd 87 3e 56 60 2b b2 94 6b 3b 3f
       0.0010460888 0.26511723 -9.975414e-09 0.73211026
000050 15 34 54 34 6a 6d 6d 3f fc 7b 0c 3b af 13 72 3f
       1.9762986e-07 0.9274508 0.0021436205 0.94561285
000060 e2 56 8e 3e 83 43 df bd 0d 64 70 3d 3e 98 65 bf
       0.2780066 -0.10901549 0.058689166 -0.8968543
000070 59 15 00 80 3d 86 00 80 01 b6 54 03 6c 81 d4 bf
       -7.658e-42 -4.8156e-41 6.251013e-37 -1.6601996
000080 c8 21 d5 bc e2 cb 31 bf cf 9a 5b b3 0f 0f 92 ae
       -0.026017085 -0.69451725 -5.113071e-08 -6.641986e-11
000090 6c 97 d3 a9 43 17 3a bf c7 2e 92 3d 6f b5 93 3f
       -9.39655e-14 -0.72691745 0.07137828 1.1539744
0000a0 d4 a8 ab 3d 8f 57 ad bf 4f 8f 9d bf 84 72 93 3f
       0.08381811 -1.3542346 -1.2309359 1.1519322
0000b0 e6 a4 05 85 3b 32 00 00 df 0e 38 26 1f ab 1b bf
       -6.283917e-36 1.8019e-41 6.385798e-16 -0.60807985
0000c0 12 bc 95 3c f6 69 5d be a5 a6 d7 33 07 bb 03 bf
       0.018278155 -0.21622452 1.004203e-07 -0.51457256
0000d0 ad 03 05 b7 3c 89 21 3e dd 2a f6 bc 1d 97 c6 3c
       -7.928274e-06 0.15775007 -0.030049736 0.024241978
0000e0 99 ee 4c bf 90 e9 09 bf 89 75 5e bf b7 66 c3 be
       -0.8005157 -0.53872013 -0.86898094 -0.38164303
0000f0 e7 bd e7 19 29 d3 00 00 c5 e9 00 ae 59 95 8f 3f
       2.3961541e-23 7.575e-41 -2.931146e-11 1.1217452
000100 3c 97 ab 2f 01 53 13 bb 5f aa 94 31 04 b7 d7 b3
       3.1212177e-10 -0.0022479894 4.326736e-09 -1.0045008e-07
000110 26 73 27 2e 81 6e ff b9 ae 59 ba 2e 55 f5 ca bc
       3.8073676e-11 -0.00048719722 8.474231e-11 -0.024775187
000120 74 76 8f ba de 5c 88 b2 b4 75 dc a3 f0 13 1c ac
       -0.0010945336 -1.5874715e-08 -2.3902297e-17 -2.218e-12
000130 eb d8 02 00 63 d5 9c 34 73 c3 e8 b6 17 c4 59 bc
       2.61486e-40 2.9212524e-07 -6.936892e-06 -0.01329138
000140 d7 f0 69 a6 02 31 95 b5 12 ac 5b 2a b8 8b 26 a3
       -8.1164513e-16 -1.1115628e-06 1.9510806e-13 -9.028465e-18
000150 81 a1 27 a6 21 21 59 b4 86 03 a6 b0 49 b7 14 b7
       -5.8158643e-16 -2.0221752e-07 -1.2079091e-09 -8.864162e-06
000160 91 0c 6b b2 60 1f 9e ae fc 61 3a 9c 8f d5 73 af
       -1.3681658e-08 -7.1905815e-11 -6.166888e-22 -2.2176593e-10
000170 38 99 e4 2e 59 3e 9d 29 57 28 13 00 1e db c1 b4
       1.0395457e-10 6.983016e-14 1.759346e-39 -3.610848e-07
000180 35 07 46 b6 83 d6 84 ba 33 37 7e a6 fb b1 92 1d
       -2.9508494e-06 -0.001013473 -8.819876e-16 3.8829906e-21
000190 bd ba 81 b1 32 2c 02 32 bd 70 12 2d 4c 9f 23 ba
       -3.775624e-09 7.577045e-09 8.324172e-12 -0.00062416936
0001a0 5a 0e 74 b9 ad 03 23 a4 e5 58 00 80 35 6e bf a2
       -0.00023275 -3.5348104e-17 -3.189e-41 -5.188734e-18
0001b0 98 20 a3 b4 67 77 c4 38 58 77 aa a6 a3 a3 82 b5
       -3.038483e-07 9.368249e-05 -1.1828468e-15 -9.733379e-07
0001c0 43 59 9b b8 e7 3a 85 bd 0a 87 87 ad 04 1f d9 bb
       -7.407602e-05 -0.06505375 -1.5407692e-11 -0.006626012
0001d0 be c2 97 2e 91 d4 3a bd b6 50 30 b5 25 05 c0 3c
       6.901278e-11 -0.045612875 -6.568256e-07 0.023439953
0001e0 e0 3b 0f bd 22 c8 50 bc 9a 80 22 bd b3 af 60 bd
       -0.03496921 -0.012743028 -0.039673425 -0.05485506
0001f0 07 c4 3a ae 6e f5 28 37 85 d4 72 ae b8 b2 94 bd
       -4.246561e-11 1.0070724e-05 -5.5213185e-11 -0.072606504
000200 2f 6c 93 38 72 9f 00 24 73 8f a9 af ff d1 93 a7
       7.029657e-05 2.789063e-17 -3.0842848e-10 -4.1028374e-15
000210 82 27 9e 24 13 09 39 36 8e a3 81 bc 3d 29 29 bf
       6.8588506e-17 2.757243e-06 -0.01582506 -0.6607855
000220 be 9a b6 33 12 ec 9d be 19 b0 1f 3f 19 2e ce 3e
       8.503183e-08 -0.3084417 0.6237808 0.40269545
000230 14 d4 96 2a 39 06 01 00 d7 7b 09 80 36 4e 26 bf
       2.679251e-13 9.4068e-41 -8.70945e-40 -0.6496309
000240 af b7 05 3d 6e 1d 73 3f 0e f8 a2 b0 c0 84 c8 3f
       0.032645877 0.9496678 -1.1857553e-09 1.5665512
000250 b1 32 56 39 cd 3a 5a 3f a2 7d 13 3d fb e2 9a 3f
       0.00020427514 0.8524597 0.036008485 1.2100519
000260 e3 e0 5a 3f 98 df 81 3f da 7e d6 be ac a3 b0 3f
       0.854994 1.014636 -0.41893655 1.3799949
000270 1b b1 35 0a 94 07 00 00 65 9e 6d 31 e4 5c 94 bf
       8.748143e-33 2.719e-42 3.4578076e-09 -1.1590848
000280 eb 20 4d b0 5c 18 fe bd 08 67 41 2f 62 ed 58 bc
       -7.4625345e-10 -0.1240699 1.7589852e-10 -0.01324019
000290 73 f6 9e b1 e1 5f 0e bd 4c 9a 42 37 c2 db 2b 3d
       -4.6264232e-09 -0.034759406 1.1599226e-05 0.041957624
0002a0 9c 8e bb bd 5b 71 b8 3d e5 2e 57 bd 56 5e aa bd
       -0.0915806 0.09005996 -0.052534956 -0.083187744
0002b0 34 26 02 b6 f3 fa 83 af f4 07 96 b1 5a aa e3 bd
       -1.9393747e-06 -2.400707e-10 -4.3664787e-09 -0.11116476
0002c0 08 07 f7 ba 84 5b 88 be 51 c4 9a b2 e0 af 55 a7
       -0.00188467 -0.2663232 -1.8017234e-08 -2.965503e-15
0002d0 63 18 f1 29 05 56 36 aa 4a 56 e8 ba b5 f6 2b 3f
       1.07067804e-13 -1.6194691e-13 -0.0017725911 0.6717332
0002e0 d7 4a 32 be 99 21 81 2c 51 75 11 3f da 34 aa bf
       -0.17411362 3.6701306e-12 0.56819636 -1.3297379
0002f0 2e 28 00 80 85 d7 01 00 50 2c 00 80 0d a5 37 bf
       -1.4414e-41 1.6915e-40 -1.5896e-41 -0.7173622
000300 1d 15 ad ba ff a7 b9 3d ca ef 65 33 b2 82 a2 be
       -0.0013205145 0.09065246 5.3536304e-08 -0.31740338
000310 f9 36 ae a9 29 be e5 bf 4c ef 3f 3c 58 a2 a1 bc
       -7.7366885e-14 -1.7948657 0.011714768 -0.019730732
000320 ea 2e 24 3f 75 90 2a bf f3 9d bb be 2f f3 9e 3c
       0.64134085 -0.66626674 -0.36643943 0.019403068
000330 da b8 00 80 9d 47 00 80 0d db 83 95 68 d6 8c bd
       -6.6312e-41 -2.569e-41 -5.325608e-26 -0.06876832
000340 fa cf 88 2b 9b 6a 26 b1 3a f7 e8 38 48 72 2a 9c
       9.721106e-13 -2.4216777e-09 0.000111086716 -5.6395987e-22
000350 2b 34 98 b0 02 44 a0 b1 a3 b9 1f 36 1b 3f 0b b5
       -1.1074283e-09 -4.6643445e-09 2.38009e-06 -5.1873366e-07
000360 28 0a 34 ac 8c f5 74 af 4d 5e e0 27 c4 ac 24 b0
       -2.5585176e-12 -2.2278906e-10 6.227473e-15 -5.9908367e-10
000370 c0 72 bf a4 fa 77 02 00 1c 05 bf b7 f0 5b 0a b5
       -8.302744e-17 2.2671e-40 -2.2771354e-05 -5.154279e-07
000380 3b 22 50 33 9a 2f 95 3c ab ad 06 00 ef 48 e7 3c
       4.8459906e-08 0.018211175 6.13313e-40 0.02823302
000390 97 8a 82 0c 6b cb bc bc 07 d7 8d 2d 69 ec de bd
       2.0113082e-31 -0.023046216 1.6125335e-11 -0.108849354
0003a0 7b da ea 3c 2c c3 2e be 03 6a 85 bb 3f bd d9 bd
       0.028668633 -0.1706664 -0.0040714755 -0.10631799
0003b0 c5 d8 05 a0 06 af 90 b4 53 b1 44 35 72 ac 28 be
       -1.1337261e-19 -2.6949436e-07 7.327373e-07 -0.16472033
0003c0 e1 5e 0c bc d6 1d 3c 3f c9 bb 13 b2 c8 54 92 bf
       -0.008567543 0.73483026 -8.5992236e-09 -1.1432123
0003d0 7e 3d 02 aa 2c 27 91 3e 2c e7 af bd 13 a9 11 bf
       -1.1567654e-13 0.28350198 -0.085890144 -0.5689861
0003e0 ad db 83 3f aa 39 98 3f 04 52 4d bf b0 f2 27 be
       1.0301415 1.1892598 -0.8020327 -0.16401172
0003f0 3b 0f 00 80 fe 12 00 80 93 59 1a 23 22 02 b2 3e
       -5.464e-42 -6.813e-42 8.367325e-18 0.34767252

conv_block2.0.bias f4 [32]
000000 a9 ba 2a 3d 36 46 ba bf b2 dd eb 3e 48 94 a3 3f
       0.04168192 -1.4552677 0.46067578 1.2779627
000010 6a 57 9f bc c5 14 dd b5 3c 22 ba b6 f9 22 24 bd
       -0.019450862 -1.6471828e-06 -5.5472174e-06 -0.040072415
000020 11 18 12 bf bd a8 38 c0 1d 06 cf bd fb 16 3d bf
       -0.5706797 -2.885299 -0.10108588 -0.7386319
000030 ae f5 01 3f a8 27 ba b5 a1 30 01 be d2 c2 1f bf
       0.507655 -1.3869621e-06 -0.12616207 -0.6240665
000040 0b 71 fd ae 3e f5 06 3f d0 3d e0 3e b9 ea 6f bd
       -1.15251884e-10 0.5271796 0.4379716 -0.05857346
000050 f5 2f a5 3f 25 6e 57 3e d5 db b2 bf c2 d9 c4 bd
       1.290526 0.2103811 -1.3973337 -0.096118465
000060 18 08 32 3f 60 05 a8 bb 6f 92 23 b8 f5 a4 15 c0
       0.695436 -0.005127594 -3.8998605e-05 -2.3381932
000070 4f 42 4c 3e f4 8c a1 be 1f c7 b5 3e 0f 3e 04 3f
       0.1994717 -0.3155285 0.3550348 0.51657194

conv_block3.0.weight f4 [64, 32, 1]
000000 ef ab 01 a9 38 6a 00 00 54 17 53 94 3f 6f 53 ba
       -2.8792883e-14 3.8104e-41 -1.0657378e-26 -0.0008065588
000010 17 6b 8e b8 9e 76 b9 b6 3a 19 7a a8 40 46 d2 27
       -6.791035e-05 -5.5272385e-06 -1.3883258e-14 5.8362874e-15
000020 91 cc 00 00 8b 06 a9 b6 d4 d6 04 31 10 06 00 80
       7.3385e-41 -5.037354e-06 1.9330644e-09 -2.175e-42
000030 be 87 75 a3 14 70 39 2a 0a f2 7d 38 65 76 80 b9
       -1.3310221e-17 1.6470186e-13 6.0545317e-05 -0.00024502273
000040 46 3a 91 30 44 20 6d ad 80 e0 4e 8a ed 8c 46 27
       1.0566701e-09 -1.3479055e-11 -9.960763e-33 2.7554416e-15
000050 b5 8f 9c b5 3f 0b 00 80 1a c3 ff b1 0a 46 01 ab
       -1.166473e-06 -4.034e-42 -7.4436572e-09 -4.5927205e-13
000060 6b f7 dd b3 0b 67 03 80 d0 e7 4c b5 f8 06 dc b1
       -1.03361195e-07 -3.12471e-40 -7.6333254e-07 -6.403635e-09
000070 fb d2 22 a5 3e 76 ae 2e 1d 13 00 00 bd b8 00 00
       -1.4122743e-16 7.933608e-11 6.857e-42 6.6272e-41
000080 ce 62 26 14 52 a7 8c b9 ce 78 c6 bc ad 0f 76 bd
       8.400344e-27 -0.00026827544 -0.024227526 -0.060073543
000090 e8 a9 c0 2b 25 88 0b b9 de 59 4a ae 06 39 dd b6
       1.3689579e-12 -0.00013306791 -4.60093e-11 -6.5929516e-06
0000a0 83 43 38 95 80 43 9a bd 69 2d b0 a3 d6 9f 4e b3
       -3.721176e-26 -0.07532406 -1.910119e-17 -4.8108483e-08
0000b0 93 35 b9 bb df 7d 00 00 07 a4 a6 3a b7 05 8c bd
       -0.0056521385 4.5154e-41 0.0012713679 -0.068370275
0000c0 fd 25 0b 32 a0 01 af bc c2 aa 00 bb 2d ad 85 a3
       8.099502e-09 -0.02136308 -0.001963303 -1.4493232e-17
0000d0 16 2c 42 bb f7 5e 33 11 ec c7 74 bd 9d 47 37 ac
       -0.0029628328 1.4149874e-28 -0.059760973 -2.6045617e-12
0000e0 f1 9c 16 bc 5d c4 48 2a ae 6a 00 aa 70 7b e4 bc
       -0.009192691 1.7831696e-13 -1.1405696e-13 -0.02789089
0000f0 ce 8c 33 33 bb 43 76 bc 7e ce 02 b7 c3 c7 85 ba
       4.1804746e-08 -0.015030797 -7.7966815e-06 -0.0010206628
000100 e9 18 00 00 0d 43 f3 aa f3 22 2a 2e 44 8e bb af
       8.936e-42 -4.3211997e-13 3.8684566e-11 -3.4116188e-10
000110 03 4f cd aa bb 78 96 38 ab b0 3d 31 db ef d8 2c
       -3.647014e-13 7.175045e-05 2.7603544e-09 6.1657185e-12
000120 95 43 63 2d cc e9 00 2e 02 5e 88 ab cf f1 fe aa
       1.2918462e-11 2.9311484e-11 -9.689474e-13 -4.5287252e-13
000130 5e 30 33 ac 59 c1 65 b3 6a 25 5e 2d f2 44 fb 2e
       -2.546428e-12 -5.3494066e-08 1.2627547e-11 1.1426406e-10
000140 ce 2e c2 26 07 3b 68 b1 e0 ad 65 b0 f0 c6 69 b3
       1.3474141e-15 -3.3793996e-09 -8.3556806e-10 -5.4430473e-08
000150 37 18 ef 2b 48 a7 00 80 53 5b e9 b1 12 ea 27 2d
       1.6988692e-12 -6.0009e-41 -6.791575e-09 9.544825e-12
000160 9e 2d e4 af 80 8f bd 33 35 fd 2a 2f 58 14 c3 ad
       -4.150537e-10 8.827101e-08 1.5551367e-10 -2.2177968e-11
000170 a0 1f 00 80 bf 2e 00 80 77 94 82 ac 3c 55 e6 2b
       -1.1345e-41 -1.677e-41 -3.711305e-12 1.636614e-12
000180 ef 0c 01 80 6f 37 ae a0 e6 60 03 af 13 df ad a5
       -9.6475e-41 -2.951343e-19 -1.1948806e-10 -3.0161877e-16
000190 66 92 35 a4 9b ed 55 26 90 78 11 2c 47 6b 38 ab
       -3.9372123e-17 7.4221236e-16 2.0672665e-12 -6.551881e-13
0001a0 c7 8e 01 00 3d b5 01 8d 37 1f 2f 34 45 7a b1 a8
       1.43054e-40 -3.996935e-31 1.6309501e-07 -1.9703973e-14
0001b0 d8 9a 00 80 8b d7 f6 31 83 d9 86 a9 be 8b 84 9d
       -5.5547e-41 7.1840467e-09 -5.988528e-14 -3.50846e-21
0001c0 39 d7 ae b3 d6 b0 3e ad b1 d5 44 b5 df 8f 00 80
       -8.141655e-08 -1.0839515e-11 -7.332665e-07 -5.1611e-41
0001d0 1d 3e 00 80 7a 3f 00 80 02 22 2e af 4d c6 25 ab
       -2.2282e-41 -2.2771e-41 -1.583729e-10 -5.8894973e-13
0001e0 56 7c a5 94 66 60 c5 19 4b 82 51 27 30 32 00 00
       -1.6709784e-26 2.0408258e-23 2.9075208e-15 1.8004e-41
0001f0 73 67 00 80 8a 2c 00 00 7d 59 27 85 2f 29 35 00
       -3.711e-41 1.5978e-41 -7.868739e-36 4.882055e-39
000200 17 e2 96 8e 68 6a 8f a7 6b 8b b3 ba 2b ae 6a bd
       -3.719557e-30 -3.980584e-15 -0.0013698166 -0.057295006
000210 68 b4 95 30 3d ca ab a8 77 c0 5a 38 f2 b4 a3 ab
       1.0892451e-09 -1.907252e-14 5.2154497e-05 -1.1632069e-12
000220 a2 92 d0 0e b3 50 76 bd 8b 7d b2 ba ed 32 4d 10
       5.141716e-30 -0.060135555 -0.0013617737 4.0468353e-29
000230 90 89 4f b7 7a 6e c6 ab 0a 4e a5 83 73 f6 a6 bc
       -1.237019e-05 -1.409941e-12 -9.715745e-37 -0.020381188
000240 0a b7 a4 27 41 ca 81 bb bb 7e 24 bb 2b 02 00 00
       4.5717595e-15 -0.003960878 -0.0025099951 7.78e-43
000250 80 b4 7a b1 ab f1 6d 0e 3f 44 25 bd 00 01 34 1e
       -3.648239e-09 2.9328864e-30 -0.040348288 9.5293275e-21
000260 31 3f c6 aa 65 ff d6 b6 69 e0 0b b7 a4 70 eb bb
       -3.5215713e-13 -6.407429e-06 -8.337295e-06 -0.0071850587
000270 fe 73 81 8d cc 76 a7 bc 10 d8 5a ae 9d bd 00 b4
       -7.978163e-31 -0.020442389 -4.9759363e-11 -1.198991e-07
000280 da 65 ea a1 17 b4 00 80 56 1f 15 b2 1e 28 8a ba
       -1.5883417e-18 -6.4604e-41 -8.680066e-09 -0.001054052
000290 86 36 fd 26 26 20 62 ac 20 a8 01 80 c0 07 ba a7
       1.757018e-15 -3.2134378e-12 -1.52147e-40 -5.1633773e-15
0002a0 2d bc 00 00 4d 11 93 b5 44 08 3f 2b e8 38 00 80
       6.7505e-41 -1.0957389e-06 6.78683e-13 -2.0414e-41
0002b0 28 40 25 ac ec 49 30 b5 72 23 78 b1 bf 41 3e b8
       -2.3483524e-12 -6.567268e-07 -3.6108898e-09 -4.536076e-05
0002c0 5d ae be a8 f1 bd c9 b8 4f e8 3a b6 0c b8 72 32
       -2.1169855e-14 -9.619806e-05 -2.7851381e-06 1.4128101e-08
0002d0 84 8b 1d b7 49 56 00 80 90 dd ca b7 cf 8d 76 af
       -9.390413e-06 -3.0953e-41 -2.418345e-05 -2.242395e-10
0002e0 0b 95 9f b5 42 21 aa af 19 b8 16 26 0c e6 a8 ab
       -1.18898e-06 -3.094645e-10 5.2291203e-16 -1.2000969e-12
0002f0 7d 93 ef 8e 86 fb 27 27 1f cd cc 84 0e 15 15 2d
       -5.9060075e-30 2.3312257e-15 -4.8148543e-36 8.4743445e-12
000300 67 16 43 ab 53 62 04 b7 69 63 b2 bc 78 c1 d9 bc
       -6.9309006e-13 -7.890706e-06 -0.021775918 -0.02658151
000310 9b ea 00 00 ba 90 83 33 27 cb 98 27 a1 c0 f2 36
       8.416e-41 6.1264885e-08 4.2408733e-15 7.234587e-06
000320 43 18 fb 91 55 da 60 ba 29 05 85 2b 44 ff 7f ba
       -3.961577e-28 -0.0008577456 9.451651e-13 -0.00097655156
000330 af 38 b2 b8 31 9f 76 b0 bb 68 d0 b5 d2 69 7a bb
       -8.4982596e-05 -8.9720503e-10 -1.5527688e-06 -0.0038210046
000340 cd f0 2d 2c be bf 16 bb ce e9 b9 bc d4 47 fb 1f
       2.471845e-12 -0.002300247 -0.022694495 1.06421465e-19
000350 e0 09 58 bb 13 2d a2 a8 5c 3a 38 3b f5 ec d5 ad
       -0.003296487 -1.800516e-14 0.0028110957 -2.4320526e-11
000360 3c 7c 0e ba f4 e2 a7 34 39 9a 6b aa 82 3d 15 b6
       -0.00054353825 3.1271304e-07 -2.09257e-13 -2.2238532e-06
000370 2e 47 a3 aa d3 25 13 ac 45 da ee ba 16 c6 00 b6
       -2.9004007e-13 -2.0910953e-12 -0.0018223008 -1.9188788e-06
000380 19 ef 7f 8d 12 1d 1d ad 69 17 35 b9 f0 21 48 ba
       -7.8865745e-31 -8.930872e-12 -0.00017270226 -0.00076344516
000390 1c 30 01 80 d5 80 a3 a7 f6 37 26 33 a5 ed 2a 29
       -1.09094e-40 -4.538127e-15 3.8700783e-08 3.7953707e-14
0003a0 49 25 00 80 d2 83 ef a7 b3 e6 db a9 79 6e 40 b1
       -1.3375e-41 -6.6478746e-15 -9.7655736e-14 -2.8002474e-09
0003b0 56 69 3e ab ff 22 3b 30 6b bb 10 af d0 08 aa a6
       -6.7647743e-13 6.8079936e-10 -1.3163308e-10 -1.1798508e-15
0003c0 c0 25 48 b0 72 9f 15 b6 98 8e 48 ba 22 17 00 80
       -7.281322e-10 -2.229554e-06 -0.00076506427 -8.298e-42
0003d0 b5 d2 16 b7 e1 37 00 80 4d bf bc b3 8e 8a 82 a6
       -8.989756e-06 -2.0046e-41 -8.7892296e-08 -9.058117e-16
0003e0 65 b9 14 b1 74 1a 22 00 9e 1b 05 00 0d 75 0f 81
       -2.164222e-09 3.131896e-39 4.69085e-40 -2.6348932e-38
0003f0 0e 9b 00 00 da a2 4b 8c 8d a9 8f af 88 3e ad a9
       5.5623e-41 -1.5687558e-31 -2.6132022e-10 -7.693591e-14

conv_block3.0.bias f4 [64]
000000 9e 3f e1 b7 30 07 5a bd 76 cb 8b b0 c5 f0 43 a7
       -2.6851714e-05 -0.05322951 -1.0171408e-09 -2.7192208e-15
000010 df c4 1b bd 4a de d8 b8 8c e3 74 bc 44 8c c6 b8
       -0.038029548 -0.00010341087 -0.0149468295 -9.467502e-05
000020 da 8b e1 be 9f a0 b5 a4 be 49 e5 3d 62 77 8f bb
       -0.4405201 -7.876834e-17 0.11195706 -0.004378245
000030 4a b1 75 bc fb 20 f8 bd 2c d3 e5 3e de cf 24 be
       -0.014995882 -0.121156655 0.44887674 -0.1609492
000040 c9 36 1d b9 46 ac e0 b7 5c aa d8 af 62 6a 2c 3e
       -0.00014993096 -2.6783102e-05 -3.941122e-10 0.16837457
000050 44 d6 d4 be 5b 28 26 b0 61 c0 86 b7 57 de 26 3f
       -0.41569722 -6.0447797e-10 -1.6063628e-05 0.65183014
000060 07 70 75 3f 60 43 ae a9 30 1e 47 be f9 5c a9 b8
       0.95874065 -7.73884e-14 -0.1944511 -8.0758655e-05
000070 8c d9 92 bd 7b 76 c1 bf 3b 94 45 bd 1b 27 f3 bd
       -0.071704 -1.5114282 -0.048237067 -0.11872693
000080 a8 aa 1b bd 6f dd 14 b4 82 ec 90 b0 d4 be a3 bb
       -0.038004547 -1.3864131e-07 -1.0544599e-09 -0.0049971137
000090 57 89 0e ad ec b1 35 bb 23 52 d8 bb c8 94 a0 bf
       -8.102261e-12 -0.0027724458 -0.0066015883 -1.2545404
0000a0 34 09 d4 ba 65 5e 3b b9 a5 5b ae bc 64 f1 ba b5
       -0.0016177059 -0.00017868874 -0.021283934 -1.3928334e-06
0000b0 bf 75 c3 bc 7c b8 9e a6 a6 2c 0e ab a1 19 b6 b7
       -0.023859857 -1.1013457e-15 -5.0510496e-13 -2.1708025e-05
0000c0 6a e4 11 c0 24 fd 77 bd 8e c8 d9 ad 65 98 0a ba
       -2.2795663 -0.060544148 -2.4759108e-11 -0.0005286991
0000d0 bb 2c d1 bd 5e 4e bd b9 db e0 54 b3 87 f0 0e b4
       -0.1021361 -0.00036107277 -4.95646e-08 -1.3312284e-07
0000e0 0a f2 3a bd 98 51 78 be 0f 2e f2 be 9f 2c 2f bd
       -0.045640983 -0.24249876 -0.47300765 -0.042767163
0000f0 63 e8 dd bd 1c 1a b5 b6 1a e7 d2 bf f5 10 e4 bb
       -0.1083534 -5.39726e-06 -1.6476777 -0.0069600292

classifier_head.0.weight f4 [32, 64]
000000 9d 27 29 1f 82 b2 0e 29 82 72 02 00 88 9b 80 30
       3.581991e-20 3.1685165e-14 2.24749e-40 9.35743e-10
000010 fc e5 99 2a 8f 12 02 00 d8 d2 4d b9 17 b2 35 b9
       2.7337843e-13 1.90329e-40 -0.00019628869 -0.00017327849
000020 48 4a 3a b7 11 d7 be 26 37 10 48 b5 12 4c a3 af
       -1.1103759e-05 1.3242192e-15 -7.45294e-07 -2.9703578e-10
000030 a5 27 ee ba 2b ce ee 86 5e 8c eb b1 b5 7c 83 37
       -0.0018169774 -8.9828586e-35 -6.855358e-09 1.5674488e-05
000040 23 3c 11 a8 fe 18 03 a7 71 f5 e2 26 16 15 01 2f
       -8.062157e-15 -1.819345e-15 1.5748427e-15 1.1739973e-10
000050 da b7 00 80 08 cc 86 b8 0b 2b 06 00 1a 63 af b1
       -6.5954e-41 -6.427622e-05 5.66454e-40 -5.104437e-09
000060 ab db ae b7 68 f7 43 a8 80 38 02 00 b6 3f 04 80
       -2.0844707e-05 -1.0878322e-14 2.0394e-40 -3.90197e-40
000070 55 12 00 00 ee e2 69 b6 5f de 08 2a da 39 0b 00
       6.576e-42 -3.4851796e-06 1.2156377e-13 1.030944e-39
000080 41 38 00 80 48 ab 52 ad 91 ba f6 b2 9f 05 fd b8
       -2.018e-41 -1.197515e-11 -2.872301e-08 -0.00012065027
000090 b4 e0 04 80 a1 f3 19 2c 3f 0f 08 00 8f 99 52 b9
       -4.4795e-40 2.187785e-12 7.40153e-40 -0.00020084366
0000a0 be 2c e8 34 ce ed 06 80 2f 84 a3 ad f8 9d 02 00
       4.3245922e-07 -6.36321e-40 -1.8589656e-11 2.4034e-40
0000b0 aa 14 d3 2c e2 36 46 a6 38 e6 01 80 2e ea b3 b4
       5.999275e-12 -6.876943e-16 -1.74422e-40 -3.3511736e-07
0000c0 c0 4e 17 bb 2c 98 d8 a7 84 39 40 2a 6d 30 15 00
       -0.002308771 -6.011703e-15 1.707298e-13 1.945917e-39
0000d0 86 27 32 2a fa dc 00 00 df 78 d1 37 b2 f6 d5 b4
       1.5823288e-13 7.9271e-41 2.4971027e-05 -3.9853836e-07
0000e0 42 af 0d 80 60 82 7e b0 45 34 39 b2 87 c6 8b ba
       -1.256732e-39 -9.2589936e-10 -1.0780302e-08 -0.0010664024
0000f0 9f 3b 0c 26 52 1e 73 30 1a 90 b9 b7 d9 cd 17 ad
       4.865306e-16 8.844597e-10 -2.2120821e-05 -8.629064e-12
000100 ed 50 00 80 12 fb fa 3c 54 2c 64 ad c1 0a ae 98
       -2.903e-41 0.030637298 -1.2970142e-11 -4.4988804e-24
000110 d2 1c 1c 2f c1 46 00 80 12 c9 82 2d 01 3a 9e af
       1.4198356e-10 -2.5382e-41 1.4868582e-11 -2.8781247e-10
000120 76 84 01 00 47 81 00 00 09 40 fc 3d 57 2b 53 33
       1.39354e-40 4.6376e-41 0.12316901 4.9166683e-08
000130 cb 72 df 3d 19 8a 6d b8 cf f7 9f be 28 2d 97 bd
       0.10910567 -5.6633817e-05 -0.3124375 -0.0738166
000140 0c fe ea 31 ec 91 37 1a 42 cf 69 91 b7 4d c2 b8
       6.839178e-09 3.7961388e-23 -1.8444325e-28 -9.2651164e-05
000150 95 b5 73 3e 34 f2 00 00 ce 40 ac ae ce a0 e7 3e
       0.23799737 8.6886e-41 -7.833166e-11 0.45239872
000160 77 29 e0 3e 79 e0 00 80 f4 c1 df 3b bc 92 e2 b1
       0.43781635 -8.0526e-41 0.006828541 -6.5941475e-09
000170 d3 09 99 ba f3 01 8f 3e 49 4a be 3a 71 ad 6d 3a
       -0.0011675901 0.27931175 0.0014517988 0.00090666773
000180 98 0f 33 3e c8 b8 44 00 6f 3a 03 0b e7 0e 1f 3c
       0.17486417 6.311101e-39 2.5273643e-32 0.009708143
000190 fe 00 ae 28 90 41 99 2d bf 23 46 95 dc 54 96 3e
       1.9318311e-14 1.7423202e-11 -4.001398e-26 0.29361618
0001a0 48 45 08 36 e7 7d 00 35 37 b0 08 32 b9 15 21 09
       2.0305906e-06 4.786693e-07 7.9563085e-09 1.9389884e-33
0001b0 ff a5 3c b6 16 e0 4b 05 45 00 83 a8 13 df 12 31
       -2.8110805e-06 9.586172e-36 -1.4544039e-14 2.13726e-09
0001c0 66 fc dd be f9 8c a6 b7 6d 3a 77 8d cb 04 1f b6
       -0.43356627 -1.9854388e-05 -7.618308e-31 -2.3695636e-06
0001d0 6d 5c 91 11 c8 8d 00 00 6e 08 c4 0e 2e 95 00 80
       2.2933928e-28 5.0862e-41 4.8325848e-30 -5.3516e-41
0001e0 70 88 cd 30 a4 8a 91 3d 60 fd 92 3d 09 f2 bf bd
       1.4954491e-09 0.07106522 0.07177234 -0.093723364
0001f0 ff 92 ee 39 79 87 69 93 e6 63 93 3e 3f 5d 1d 37
       0.00045504418 -2.9475528e-27 0.28787154 9.37964e-06
000200 8d 1d ec b0 54 a5 c1 3b ed 7f 67 ac 5a 12 00 00
       -1.7179659e-09 0.005909601 -3.2898087e-12 6.583e-42
000210 b7 73 7b 24 c7 c8 75 31 6d 57 5b 33 97 a4 4c 2b
       5.4524963e-17 3.576632e-09 5.1069424e-08 7.2703773e-13
000220 b5 13 0b 3f 9b 7e 00 00 36 9c ec be fb 3a 2d 99
       0.54326946 4.5417e-41 -0.4621293 -8.955801e-24
000230 be 93 ca 3e ed ba 26 bb 70 7d bc be 24 36 c0 be
       0.39565843 -0.0025441006 -0.3681445 -0.37541306
000240 31 be c1 2f 71 5b 5a 24 cd 95 b5 91 91 51 ad be
       3.5241635e-10 4.734867e-17 -2.8649087e-28 -0.33851293
000250 89 ec f4 3d f8 7e 4c 95 ad 07 f4 a7 90 ee d2 3e
       0.11959178 -4.1297633e-26 -6.7731927e-15 0.41197634
000260 ae 3b 83 3e 67 1b 00 80 c7 5e 2a bd e9 c0 aa 2d
       0.2563147 -9.83e-42 -0.041594293 1.9412432e-11
000270 f7 f3 60 3a ca 71 24 3e f9 34 e1 bb 93 4d 9e 3c
       0.00085812755 0.16059032 -0.00687277 0.0193241
000280 a4 8a 0e bd df 9a 00 80 0d e7 dd 91 64 17 89 3a
       -0.034800187 -5.5557e-41 -3.5010048e-28 0.0010459241
000290 bb 44 1c 29 26 62 80 33 53 0d e3 37 1d d8 ba 3e
       3.4698573e-14 5.9783176e-08 2.7066713e-05 0.36493006
0002a0 c5 e3 08 36 c4 54 5c 31 8a b4 4c 3a a6 4e f0 a4
       2.0398159e-06 3.2062397e-09 0.0007808885 -1.04216644e-16
0002b0 f7 92 76 38 09 ac 00 00 02 91 c6 28 e5 e5 c0 19
       5.8787842e-05 6.1715e-41 2.2045303e-14 1.9945188e-23
0002c0 1a f5 d8 be 0a e5 8d 3c 1a 98 9e 0e f9 2a 77 b6
       -0.42374498 0.017321128 3.9096476e-30 -3.6830882e-06
0002d0 56 fb fc bb 84 4d b0 10 8e d7 f0 0f 71 ca 40 95
       -0.0077203913 6.953919e-29 2.3748856e-29 -3.893379e-26
0002e0 b7 fa 05 36 dc e5 e2 3c f7 e6 16 be 83 56 49 3e
       1.996448e-06 0.027697496 -0.14736544 0.19661908
0002f0 c9 f3 1c ba 13 fe 0a 16 5d f2 93 3e 9f cd be b7
       -0.00059872546 1.1227723e-25 0.28895846 -2.2745515e-05
000300 90 2d 63 ae bf f9 1b 3b 33 87 11 9c 7d c7 72 91
       -5.1654292e-11 0.0023799983 -4.8151216e-22 -1.9151906e-28
000310 cf 3d 35 b9 f2 25 39 b2 61 fd 37 b9 9c 5b a5 36
       -0.0001728453 -1.0777045e-08 -0.00017546631 4.928048e-06
000320 c9 2b b0 3e 58 74 00 80 79 50 f5 3e 4b d9 fd 30
       0.34408405 -4.1736e-41 0.47912958 1.8469931e-09
000330 f4 c1 35 3e 7b d6 e0 3a 97 d1 59 bd 52 22 5c be
       0.17749768 0.0017153764 -0.053178396 -0.21497467
000340 ca c2 07 b8 a0 6c f1 35 40 9f 17 8f 44 5f 37 bd
       -3.236792e-05 1.7987513e-06 -7.475545e-30 -0.044768587
000350 e3 85 93 3e 54 bc 00 80 40 9b a8 b1 93 57 4c bd
       0.28813085 -6.756e-41 -4.9070934e-09 -0.049888205
000360 a3 8d a5 3e 6c b3 96 96 38 17 7f 3d 2c df d8 37
       0.32334623 -2.4347038e-25 0.062278003 2.5853129e-05
000370 33 5b 8a 39 aa 91 0e bf 85 32 10 bd 88 03 05 b6
       0.0002638936 -0.55691016 -0.03520443 -1.98206e-06
000380 13 1a ce bd 36 1a 83 84 68 67 e0 2d 7f d7 85 37
       -0.10063567 -3.0822023e-36 2.5511773e-11 1.5955184e-05
000390 04 7e 2c 20 56 1f d3 39 52 1b ef 37 21 18 ea be
       1.4610662e-19 0.00040268403 2.8503742e-05 -0.45721534
0003a0 49 b1 2a 3a 7c df 53 30 24 df e4 38 1d c9 9a a2
       0.0006511403 7.7078943e-10 0.000109134504 -4.195472e-18
0003b0 0f 81 ba 3b fd e8 fe 1d f8 61 e8 95 23 72 07 34
       0.0056916545 6.7474144e-21 -9.385862e-26 1.2614377e-07
0003c0 22 76 8f be ec d7 7c bd 9f 4a 92 ab 07 a8 14 b3
       -0.28019816 -0.061729357 -1.0394635e-12 -3.4611755e-08
0003d0 9e 95 03 b9 0d d5 df 31 eb 7e 31 ac f0 0e 01 29
       -0.0001254887 6.5143753e-09 -2.5223666e-12 2.865671e-14
0003e0 0d 87 08 39 38 98 04 be f1 40 3c bf 08 78 72 bf
       0.00013020281 -0.12948692 -0.7353659 -0.94714403
0003f0 b0 f4 4c 3c bc 18 d5 af 7d 8f 17 3a ef f6 6b ba
       0.01250951 -3.876205e-10 0.00057815743 -0.00090013345

classifier_head.0.bias f4 [32]
000000 a8 ca c6 bb 51 68 8b bf b9 fd 4f bf ac 94 46 3e
       -0.006066639 -1.089121 -0.81246525 0.19392651
000010 04 14 85 3e f6 e5 32 bf d3 81 7f 3d 03 cc c9 3d
       0.25991833 -0.6988214 0.06237967 0.09853365
000020 e6 4f 64 3e 0b 7a 83 3d 4e 6f 8f bf 75 b1 5c 3e
       0.22296104 0.06419762 -1.1205842 0.2155207
000030 05 aa 8a 3e 77 7b 9e 3d 2a e2 6f 3d 09 00 46 bf
       0.2708284 0.07738393 0.058565296 -0.77343804
000040 47 33 13 3e 4a 72 63 3f 9f 94 84 3f f6 1b 94 be
       0.1437503 0.88846266 1.0357856 -0.28927583
000050 e6 a2 8a be 90 68 5b 3f 46 d3 8b bf 8f ce 1e bf
       -0.27077407 0.85706425 -1.092385 -0.62033933
000060 14 ce 71 3f 8e 97 44 3f 45 9c 09 3e 00 5f 84 bd
       0.94455075 0.76793754 0.13438518 -0.06463432
000070 15 ad af be bb 44 99 3e 9c cc 69 3f 11 67 ba 3e
       -0.3431174 0.2993525 0.91327834 0.36406758

classifier_head.3.weight f4 [3, 32]
000000 90 52 c3 bc 10 ff 69 bf 4a f2 13 bf 63 83 52 bf
       -0.02384308 -0.9140482 -0.5779158 -0.8223173
000010 11 f7 60 be 4b ff a2 3e 7d bf 54 3e aa 25 cb 3e
       -0.21969248 0.31835398 0.20776172 0.39677173
000020 ab 90 b0 b9 24 b6 b1 3e b6 81 7d bf 6d 0c a5 bf
       -0.00033677122 0.34709275 -0.9902605 -1.2894417
000030 ed 91 06 bf 2d 11 ad 3e d3 2a 45 3f f8 84 91 bf
       -0.52566415 0.33802167 0.7701847 -1.1368704
000040 48 c8 83 be d0 4f 0f 3f 88 e3 0c 3f 05 5b 1d 3f
       -0.2573874 0.5598116 0.55034685 0.6146701
000050 4e 94 2c be aa 71 0e 3f a3 dc 5c bf f8 2f 91 3e
       -0.16853449 0.5564219 -0.86274165 0.2835691
000060 bc 30 1e 3f 41 43 21 3f c8 31 a9 bf 20 e7 9e 3c
       0.6179311 0.62993246 -1.3218317 0.019397318
000070 8a 43 03 3f 6d 11 14 bf b1 dc 15 3f 9a 84 10 bf
       0.5127493 -0.5783909 0.58539873 -0.56452334
000080 d1 99 31 3a 0e d9 de 3e 4f 0e 9c 3e e9 b6 1e 3f
       0.00067749346 0.43524975 0.30479667 0.6199785
000090 b5 35 ba be fa 55 ed 3e 57 6f d1 3e 19 42 93 3e
       -0.363691 0.46354657 0.40905258 0.28761366
0000a0 56 a9 fb be c0 33 ea 3e fd e1 fe 3e 79 45 5a 3f
       -0.4915263 0.45742607 0.4978179 0.85262257
0000b0 00 9b cc 3e 6e bc 00 3f 9e 77 2e bf f4 3f 22 3f
       0.39962006 0.5028752 -0.6815127 0.63378835
0000c0 03 1e e6 be 7f 7e 99 bf 68 3a a5 bf 7e 5e 25 3f
       -0.44944772 -1.1991729 -1.2908449 0.6459731
0000d0 a2 73 bf be 0e 91 94 bf 20 02 e4 3e 7b 9d e8 3e
       -0.37392908 -1.1606767 0.4453287 0.45432648
0000e0 45 29 a4 bf f7 4d a5 bf fc 59 4f 3f b7 58 2a 3b
       -1.2825094 -1.2914418 0.8099668 0.002599282
0000f0 1a 69 1c 3f 5d 36 f2 3e 0d 44 a1 bf 82 c3 ae 3e
       0.6109787 0.473071 -1.2598892 0.34133536
000100 e4 47 87 3c b3 43 e8 3e 05 9e 8d 3e 2e 98 49 3e
       0.016513772 0.4536415 0.27659622 0.19686958
000110 d9 7a 1c 3f e7 a6 49 bf 06 f7 1c bf 8b ac 37 bf
       0.6112495 -0.787703 -0.6131443 -0.71747655
000120 52 6d 03 3f a6 9a 55 bf d8 dd e9 3e cb 36 ce 3e
       0.51338685 -0.834391 0.45677066 0.4027618
000130 80 3c 15 3e bd 48 59 bf b1 f6 c8 bb 2c ab f5 3e
       0.1457386 -0.84876615 -0.0061329235 0.47982156
000140 96 98 28 3f 56 c0 06 3f 93 76 1c 3f 47 6a 92 bf
       0.6585783 0.5263723 0.6111843 -1.1438683
000150 53 47 eb 3e f7 f6 0b 3f f8 43 f2 3e b3 69 3b bf
       0.45952854 0.54673713 0.4731748 -0.7320816
000160 82 1e 26 3f b5 28 13 3f 02 f4 ed 3e 22 a4 24 bc
       0.648903 0.5748399 0.46475226 -0.010048898
000170 d8 f8 8e bf 9c a0 f7 3d 8b 59 18 3f 7a 74 4f 3e
       -1.1169691 0.12091181 0.5951163 0.20259276

classifier_head.3.bias f4 [3]
000000 05 74 3b 3e 73 32 f4 be 0d 2e 2c 3e
       0.18305977 -0.4769474 0.16814442
