NeuralNetBenchmarking/spiral_transformer_model.pth (torch, 80541 bytes, 29 tensors)

input_proj.weight f4 [32, 1]
0	0xbfa9eadf	-1.3274802
1	0x3e2bbdaf	0.16771577
2	0xbddfc31b	-0.10925885
3	0x3e563b11	0.2092097
4	0xbe09bf33	-0.13451843
5	0x3eb61732	0.35564572
6	0xbeaed085	-0.34143463
7	0x3ea80889	0.32819012
8	0xbea0a76b	-0.3137773
9	0x3dffc01f	0.12487816
10	0x3e0c415c	0.13696808
11	0x3eab5133	0.33460388
12	0x3faef916	1.3669765
13	0x3e78dfd0	0.24304128
14	0x3e4abd91	0.19798876
15	0xbe9cc75f	-0.30620858
16	0xbe9b68b0	-0.30353308
17	0x3e506a98	0.20353162
18	0xbe644360	-0.22291327
19	0x3e437de7	0.19090997
20	0x3e9d2ab6	0.30696648
21	0xbebc2185	-0.36744323
22	0xbea26d60	-0.31724072
23	0xbea8f389	-0.32998303
24	0xbfaf6853	-1.3703712
25	0xbe64e041	-0.22351171
26	0x3ee51fd0	0.44750834
27	0x3e2bd553	0.16780595
28	0x3ed7f1de	0.42176718
29	0x3e413933	0.18869476
30	0xbe991a14	-0.2990271
31	0xbe97466a	-0.2954591

input_proj.bias f4 [32]
0	0x3a939e67	0.0011262418
1	0xbe2b446a	-0.16725317
2	0xbd5087e7	-0.050910857
3	0xbdd17840	-0.10228014
4	0xbd24a608	-0.040197402
5	0xbd0e3bcb	-0.03472499
6	0xbe0e97f4	-0.13925153
7	0x3d55a078	0.052154988
8	0xbe74eb84	-0.23917967
9	0xbe25e83b	-0.1620187
10	0xbdb4d4f3	-0.08829679
11	0x3db7b2ee	0.08969675
12	0xbb6bcef5	-0.003598151
13	0x3c14f3af	0.009091302
14	0xbd2591d1	-0.040422264
15	0x3bd2951c	0.0064264666
16	0xbe76199a	-0.24033204
17	0xbe2d9370	-0.16950774
18	0x3a8cbec8	0.001073801
19	0xbdef7c55	-0.11693636
20	0xbb6aaa89	-0.0035807213
21	0x3da12307	0.07868009
22	0x3a445be2	0.0007490498
23	0x3d2394c2	0.03993679
24	0xbab61640	-0.0013892129
25	0xbd05939b	-0.03261147
26	0xbea6fa1b	-0.3261269
27	0xbe319a71	-0.17344071
28	0xbe6d0bf0	-0.23149085
29	0xbd077a23	-0.033075463
30	0x3b9e80ac	0.004837116
31	0xbe3548ff	-0.17703627

pos_encoder.pe f4 [2, 1, 32]
0	0x00000000	0.0
1	0x3f800000	1.0
2	0x00000000	0.0
3	0x3f800000	1.0
4	0x00000000	0.0
5	0x3f800000	1.0
6	0x00000000	0.0
7	0x3f800000	1.0
8	0x00000000	0.0
9	0x3f800000	1.0
10	0x00000000	0.0
11	0x3f800000	1.0
12	0x00000000	0.0
13	0x3f800000	1.0
14	0x00000000	0.0
15	0x3f800000	1.0
16	0x00000000	0.0
17	0x3f800000	1.0
18	0x00000000	0.0
19	0x3f800000	1.0
20	0x00000000	0.0
21	0x3f800000	1.0
22	0x00000000	0.0
23	0x3f800000	1.0
24	0x00000000	0.0
25	0x3f800000	1.0
26	0x00000000	0.0
27	0x3f800000	1.0
28	0x00000000	0.0
29	0x3f800000	1.0
30	0x00000000	0.0
31	0x3f800000	1.0
32	0x3f576aa4	0.84147096
33	0x3f0a5141	0.54030234
34	0x3f087dba	0.53316844
35	0x3f58940d	0.8460091
36	0x3e9f393e	0.3109836
37	0x3f734e6b	0.9504153
38	0x3e35233a	0.17689219
39	0x3f7bf683	0.9842302
40	0x3dcc7576	0.099833414
41	0x3f7eb898	0.9950042
42	0x3d6636ae	0.05620449
43	0x3f7f9868	0.9984193
44	0x3d01815b	0.031617504
45	0x3f7fdf3c	0.99950004
46	0x3c91ab42	0.017781857
47	0x3f7ff5a3	0.99984187
48	0x3c23d657	0.009999833
49	0x3f7ffcb9	0.99995
50	0x3bb8445a	0.0056233825
51	0x3f7ffef7	0.9999842
52	0x3b4f3e1c	0.0031622713
53	0x3f7fffac	0.999995
54	0x3ae91520	0.0017782785
55	0x3f7fffe6	0.99999845
56	0x3a83126d	0.0009999998
57	0x3f7ffff8	0.9999995
58	0x3a136a13	0.0005623411
59	0x3f7ffffd	0.9999998
60	0x39a5cb61	0.00031622782
61	0x3f7fffff	0.99999994
62	0x393a7753	0.00017782794
63	0x3f800000	1.0

transformer_encoder.layers.0.self_attn.in_proj_weight f4 [96, 32]
0	0xbf02f267	-0.51151127
1	0xbf17c844	-0.59289956
2	0x3f8c1446	1.0943687
3	0xbf6ae535	-0.9175599
4	0x3fa77bfb	1.3084711
5	0xbe9df63b	-0.3085192
6	0x3dad0e4d	0.08449993
7	0x3e1e32cd	0.15449066
8	0x3d13babd	0.03606676
9	0xbe35f19d	-0.1776795
10	0x3de32012	0.11090101
11	0x3e4c7a35	0.19968493
12	0x3e75f455	0.24018987
13	0x3d878630	0.06617391
14	0xbe93d3b0	-0.28872442
15	0xbd847503	-0.06467631
16	0xbe667a41	-0.22507574
17	0xbe5bbd1b	-0.21458857
18	0x3e94621a	0.28981096
19	0xbe167493	-0.14692907
20	0x3ee66b35	0.45003667
21	0x3da8d296	0.08243291
22	0xbda09312	-0.078405514
23	0x3e5373a9	0.2064959
24	0x3e6bf87e	0.23044011
25	0x3db486fb	0.08814808
26	0xbe401544	-0.18758112
27	0xbd6fbce0	-0.058529735
28	0xbdb80fc1	-0.0898738
29	0x3eb81e4d	0.35960618
30	0x3e97bdc7	0.29636976
31	0xbda93d6e	-0.0826367
32	0x3ea9522b	0.33070502
33	0xbe8e17d8	-0.27752566
34	0x3e83f384	0.25771725
35	0xbf0fb4b7	-0.56135124
36	0xbe4b8c5f	-0.19877766
37	0xbe206889	-0.15664877
38	0xbeb9f0d5	-0.36316553
39	0x3d8a3930	0.06749189
40	0x3e5e7a2a	0.2172629
41	0x3eb8eb6b	0.3611711
42	0x3ed23f35	0.41063848
43	0x3da83c51	0.082146294
44	0xbf06eeb6	-0.52707994
45	0x3db5ba2b	0.08873399
46	0x3d888552	0.06666054
47	0xbda1a873	-0.07893457
48	0xbe0acefe	-0.13555524
49	0x3f91f2b5	1.1402193
50	0xbeb7cd11	-0.3589864
51	0x3ebf9747	0.37420103
52	0x3f5c4700	0.8604584
53	0xbdedbf4d	-0.11608753
54	0xbee4b97c	-0.44672763
55	0xbdb62b29	-0.08894951
56	0x3ef748d4	0.4829775
57	0xbe4484e0	-0.19191313
58	0xbac5b2e3	-0.001508322
59	0x3f8d7f78	1.1054525
60	0x3bf1cc3b	0.0073790825
61	0x3e5b464c	0.21413535
62	0xbf2d1113	-0.6760418
63	0xbf802531	-1.001135
64	0xbd5f5227	-0.054521706
65	0x3fa63f43	1.2988056
66	0xc0037b8a	-2.0544152
67	0x3e3f7f2e	0.18700859
68	0xbfc5a368	-1.5440493
69	0xbeb4f9a3	-0.35346708
70	0xbd83f2c6	-0.0644279
71	0xbe08afe5	-0.13348348
72	0xbb771b3d	-0.0037705444
73	0xbf0142ae	-0.5049237
74	0xbe8608bb	-0.26178536
75	0xbdf7304a	-0.12069757
76	0xbe8062b7	-0.25075313
77	0xbdfd9bd6	-0.12383239
78	0xbf088c8d	-0.53339463
79	0xbcffba78	-0.031216845
80	0xbe020850	-0.12698483
81	0xbf4188d8	-0.7559943
82	0x3f3a0f49	0.72679573
83	0xbebcb817	-0.368592
84	0xbea206de	-0.31645864
85	0xbe750edb	-0.23931448
86	0x3e3f7c5e	0.18699786
87	0x3c3cd990	0.01152648
88	0xbe3b7f20	-0.18310213
89	0x3d1e7b2f	0.038691696
90	0xbd92f84f	-0.07176267
91	0xbf326bf7	-0.6969599
92	0x3d9718bf	0.07377767
93	0xbd95859f	-0.07300877
94	0x3f3a3587	0.72737926
95	0x3f64a28c	0.89310527
96	0xbf03e7e6	-0.51525724
97	0x3f85efc1	1.0463792
98	0xc0088ecb	-2.1337154
99	0x3f7b8bba	0.9826008
100	0xbfe7dd3f	-1.8114394
101	0x3e08a29d	0.13343282
102	0xbe46b101	-0.19403459
103	0xbe6e6de2	-0.23284104
104	0x3dcec392	0.10095896
105	0x3e83bc0c	0.25729406
106	0xbe22a4c2	-0.15883163
107	0xbcef6720	-0.029223979
108	0x3eaa28f2	0.33234364
109	0x3d40188f	0.04689842
110	0xbedf7b88	-0.43648934
111	0x3e659df2	0.22423533
112	0xbda1dabe	-0.0790305
113	0xbdf8fdb7	-0.12157767
114	0x3ed03fb0	0.4067359
115	0x3e826139	0.254648
116	0xbf23b741	-0.639515
117	0x3e041f73	0.12902622
118	0x3edeba48	0.43501496
119	0x3e85c560	0.26127148
120	0x3e60e8b7	0.21963774
121	0x3db2348c	0.08701429
122	0x3cf9d76b	0.030498227
123	0xbeb49e19	-0.3527687
124	0xbe719b77	-0.23594461
125	0x3e03c13e	0.12866685
126	0x3f028c2e	0.5099515
127	0x3dbf097d	0.093279816
128	0x3e937d52	0.2880655
129	0xbf0c9b2b	-0.5492427
130	0x3f81ab1a	1.0130341
131	0xbea4363a	-0.32072622
132	0x3f28950e	0.6585244
133	0xbe00ac04	-0.12565619
134	0x3d748a0c	0.059701964
135	0x3cdaa433	0.026689624
136	0xbec91752	-0.39275604
137	0xbed09056	-0.4073512
138	0xbdad1e30	-0.084530234
139	0x3e0eff82	0.13964656
140	0x3f0956c5	0.53648025
141	0x3d997c2e	0.074943885
142	0x3e4379e5	0.19089468
143	0x3c178a9a	0.009249354
144	0xbd843de1	-0.06457115
145	0x3d8f36d7	0.06992882
146	0x3eaac848	0.33355927
147	0xbddd7e53	-0.1081511
148	0xbe96ce54	-0.2945429
149	0xbbf8ef0c	-0.007596856
150	0xbda464a3	-0.080270074
151	0x3d4d6358	0.05014357
152	0xbf10b01f	-0.5651874
153	0x3e4174d9	0.1889223
154	0x3d27e127	0.040986206
155	0x3c072c5d	0.008250323
156	0xbc5dc9ee	-0.013536913
157	0xbe05f72e	-0.13082573
158	0xbe75924c	-0.23981589
159	0x3dcdcf4b	0.100493036
160	0x3ea64b01	0.32479098
161	0x3e531a29	0.20615448
162	0x3e14ec5a	0.14543286
163	0xbfacf043	-1.3510822
164	0x3f120639	0.57040745
165	0xbf22022a	-0.6328455
166	0x3f87f2e8	1.0621004
167	0xbea4768f	-0.32121703
168	0x3eb7c8e2	0.3589545
169	0xbf02f20b	-0.5115058
170	0x3daa5d78	0.08318609
171	0xbe67b1d5	-0.22626431
172	0xbea5451a	-0.32279283
173	0xbed1c090	-0.40967226
174	0xbe45b113	-0.1930583
175	0xbb8f0f37	-0.0043658274
176	0x3ea0570a	0.31316406
177	0xbe712f8c	-0.23553294
178	0x3cfaf9d4	0.030636705
179	0xbf365fa9	-0.71239716
180	0xbe4f8a9c	-0.20267719
181	0x3d4b497c	0.049630627
182	0x3eaff4a0	0.34366322
183	0x3b8958f9	0.0041915146
184	0x3f14bb8f	0.5809869
185	0xbb18cb45	-0.0023314517
186	0x3d87544a	0.06607874
187	0xbd0683a6	-0.032840393
188	0xbd290fc3	-0.041274797
189	0xbdbbf597	-0.09177702
190	0x3ea26d3c	0.31723964
191	0x3c25d890	0.010122433
192	0xbeeb5a21	-0.459672
193	0xbee13442	-0.43985182
194	0x3f1a81b4	0.6035416
195	0xbe01f6b4	-0.12691766
196	0x3e53035d	0.20606752
197	0xbe810c5c	-0.25204742
198	0x3f0f5cac	0.5600078
199	0xbd29431c	-0.041323766
200	0x3ba916a9	0.005160172
201	0xbea17c2f	-0.31540057
202	0xbda4837b	-0.080328904
203	0x3e6eb0ad	0.23309584
204	0xbf5bacf3	-0.85810775
205	0xbc0420f2	-0.008064495
206	0xbcdac140	-0.026703477
207	0x3d0ae3e0	0.033908725
208	0xbdc91cc8	-0.09819943
209	0xbf1e302c	-0.61792254
210	0x3de32a90	0.110921025
211	0xbdf2e74a	-0.11860521
212	0x3e28c950	0.16483045
213	0x3d138b46	0.036021493
214	0x3f2186c1	0.63096243
215	0xbd8600ba	-0.06543107
216	0xbf25fad7	-0.64835876
217	0x3dbc9932	0.09208907
218	0xbca9b911	-0.02071813
219	0xbea18f78	-0.3155477
220	0xbc2331c6	-0.009960597
221	0x3d2eac34	0.042644694
222	0x3e7b6873	0.24551563
223	0x3f2b9476	0.6702341
224	0xbbae6cb6	-0.005323018
225	0x3f0ffa54	0.56241345
226	0xbee43643	-0.44572648
227	0x3ee3d93d	0.44501677
228	0xbf325fbf	-0.69677347
229	0xbd670d87	-0.056409385
230	0xbda2633a	-0.07929082
231	0xbd6dc19a	-0.05804596
232	0xbcac3248	-0.02102007
233	0x3f08f7f3	0.5350334
234	0x3c8610b2	0.016365383
235	0x3e13b7ab	0.14425533
236	0x3ed66be2	0.41879183
237	0xbc3965e5	-0.011315797
238	0x3e158d14	0.14604598
239	0x3e86ceb7	0.26329586
240	0x3e35bd21	0.17747928
241	0xbe027d78	-0.12743175
242	0xbf35ecbb	-0.7106435
243	0x3e7c4f9f	0.24639748
244	0x3e61491f	0.2200055
245	0x3d46ff75	0.048583467
246	0x3e137cfa	0.14403144
247	0xbe6dc67d	-0.23220249
248	0x3f85db3d	1.0457531
249	0xb9ecb66b	-0.0004514934
250	0x3d4fdc22	0.050747044
251	0xbbf4d483	-0.0074716224
252	0x3e8b6134	0.27222598
253	0x3cd295b2	0.025706146
254	0xbe6a82bd	-0.22901435
255	0xbd93dd09	-0.072198935

transformer_encoder.layers.0.self_attn.in_proj_bias f4 [96]
0	0xbe9f9e69	-0.31175545
1	0xbe836827	-0.256654
2	0x3f396313	0.724168
3	0x3f42b473	0.76056594
4	0xbf18495f	-0.59486955
5	0xbe6e94bc	-0.23298925
6	0x3d211531	0.03932685
7	0x3ea88e25	0.32920948
8	0xbe98ee45	-0.29869285
9	0xbe196c0c	-0.14982623
10	0x3ed36755	0.41289774
11	0x3f2b5a53	0.669347
12	0x3f403bab	0.75091046
13	0x3f977420	1.1832314
14	0x3deb8ec4	0.1150184
15	0xbfaea9fb	-1.3645624
16	0xbe57be26	-0.2106863
17	0xbd257514	-0.040394858
18	0xbe799cd2	-0.24376228
19	0xbc1a9c6f	-0.009436711
20	0xbe30ea0b	-0.1727678
21	0x3dc91335	0.098181166
22	0x3dd22294	0.102605015
23	0x3e7d2bde	0.24723765
24	0xbeadc8b2	-0.3394218
25	0xbf075b4b	-0.52873677
26	0x3f2dbd7f	0.67867273
27	0xbe9eabfe	-0.30990595
28	0x3e3fe89f	0.18741082
29	0xbde087a6	-0.10963373
30	0x3f85336d	1.0406319
31	0x3f7bd94d	0.9837845
32	0x3be30ca8	0.006928999
33	0x3cc7828f	0.024354247
34	0xbc4b90ed	-0.01242469
35	0xbd02fa9d	-0.031977285
36	0xbc37f215	-0.01122715
37	0xbbb1edf7	-0.005429979
38	0xbbadcc84	-0.005303921
39	0xbad6fb0d	-0.0016401723
40	0x3cb58698	0.022158906
41	0xbc4152ce	-0.011799527
42	0xbc450c99	-0.012026929
43	0x3cc86bb5	0.024465421
44	0xbbdce102	-0.00674069
45	0xbb2d05e9	-0.0026401228
46	0xbbd25416	-0.006418715
47	0x3ba3f4dd	0.005003555
48	0xbd093a89	-0.03350309
49	0xbd4cef00	-0.050032616
50	0xbd23b96e	-0.03997176
51	0x3d197e1c	0.037473783
52	0xbd34ee35	-0.044172484
53	0x3c2acb7a	0.010424489
54	0x3d661f94	0.05618246
55	0x3d047ff1	0.032348577
56	0xbc964452	-0.018343125
57	0x3b895ac7	0.0041917297
58	0x3d1356ea	0.03597156
59	0x3ba97fba	0.005172697
60	0x3d1c0f06	0.038100265
61	0xbd4f8f16	-0.050673567
62	0xbd3bfddf	-0.045896407
63	0xbd29f984	-0.041497722
64	0x3f2e4abb	0.6808278
65	0x3cc7af08	0.024375454
66	0x3f03c6ad	0.5147503
67	0x3dd75ccb	0.10515746
68	0x3e58352c	0.21114033
69	0x3d82c035	0.06384317
70	0x3f4eebf9	0.80828816
71	0xbefd1244	-0.49427998
72	0xbe3d91f3	-0.18512706
73	0x3f893b77	1.0721272
74	0x3f1aa2b0	0.6040449
75	0xbe0f11ae	-0.13971588
76	0x3fc1735a	1.5113328
77	0xbef9f798	-0.48821712
78	0xbf500aec	-0.81266665
79	0x3d0e6843	0.0347674
80	0x3da6d817	0.081466846
81	0xbe911f79	-0.28344324
82	0x3df4d3c0	0.119544506
83	0x3eb075aa	0.3446477
84	0x3ec2d300	0.38051605
85	0xbdeae717	-0.11469858
86	0xbd985938	-0.07438892
87	0xbeb408dd	-0.35163012
88	0xbf829de0	-1.020443
89	0xbecb877a	-0.39751798
90	0x3fbdba27	1.4822434
91	0x3fbf1067	1.4926881
92	0x3e9e9403	0.309723
93	0xbf617fbf	-0.8808555
94	0xbefc6e0b	-0.49302706
95	0x3fbac187	1.459031

transformer_encoder.layers.0.self_attn.out_proj.weight f4 [32, 32]
0	0x3aa7aae0	0.0012792014
1	0xbc4604b1	-0.012086079
2	0xbb91cb1e	-0.0044492623
3	0x3b9d5022	0.0048008123
4	0x39e4fad9	0.00043674445
5	0xbd23d813	-0.040000986
6	0x3c322fb4	0.010875631
7	0x3bec24ca	0.007206534
8	0x3d26b256	0.04069742
9	0xbdb2e7f8	-0.08735651
10	0xbbfafa2f	-0.0076592187
11	0xbc54522b	-0.0129590435
12	0xbba24df6	-0.0049531413
13	0xbc93d532	-0.018045995
14	0x3c12f8ba	0.008970434
15	0x3bbf4959	0.005837601
16	0xbcba8019	-0.02276616
17	0x3c5bee8c	0.013423573
18	0x3c7d11bc	0.015446123
19	0xbbbea227	-0.00581767
20	0x3be2a695	0.006916831
21	0xbc8dc5b8	-0.017306194
22	0xbb6fe421	-0.0036604481
23	0x3cd0df3d	0.025497073
24	0x3cc9bd66	0.024626445
25	0x3cb158aa	0.021648724
26	0xbcbc1e89	-0.022963779
27	0x3d8e2043	0.06939747
28	0x3c2e561c	0.010640647
29	0xbbb0b7a8	-0.0053929873
30	0xbd07f826	-0.033195637
31	0x3c70f0f4	0.014705885
32	0xbbd73648	-0.00656775
33	0xbce1999a	-0.027539063
34	0xba687489	-0.0008867463
35	0x3ce01201	0.027352335
36	0x3bdaa63e	0.0066726496
37	0xbcaf0885	-0.021366367
38	0x3c8c1c6f	0.017103402
39	0xbce425f1	-0.027850123
40	0x3b842b1c	0.0040334594
41	0x3cd4295a	0.025898624
42	0xbc58ce54	-0.013232786
43	0xbc8d0bc3	-0.017217522
44	0xbaf43f5b	-0.0018634604
45	0xbc8082d6	-0.015687387
46	0xbd8d5901	-0.06901742
47	0x3c07d304	0.008290056
48	0xbc2af7a1	-0.010435016
49	0xbc17d2b7	-0.009266547
50	0xbc1e9b4d	-0.009680581
51	0x3d184841	0.03717828
52	0x3d257c8e	0.040401988
53	0xbc71c3ff	-0.014756202
54	0xbca17d34	-0.019713022
55	0x3bb91627	0.0056483927
56	0x3d0eb720	0.03484261
57	0xbbe221df	-0.0069010104
58	0xbd4b34a7	-0.04961076
59	0xbd8a023f	-0.0673871
60	0x3d6f3733	0.05840225
61	0x3c98f08c	0.01866939
62	0xbcc8ccd6	-0.024511736
63	0xbb389fe3	-0.0028171472
64	0x3d1d7aaa	0.03844706
65	0xbca07bc7	-0.019590272
66	0xbbeac137	-0.0071641463
67	0xbda1d2d4	-0.079015404
68	0xbc7b2726	-0.015329158
69	0x3c495c22	0.012290033
70	0xbda61761	-0.08109928
71	0xbb8cafc7	-0.004293415
72	0xbcb61018	-0.022224471
73	0x3d1ebe79	0.038755868
74	0xbd743e55	-0.059629757
75	0xbc572297	-0.013130805
76	0x3cffc35b	0.031221082
77	0x394eddc5	0.00019728307
78	0xbc126aee	-0.008936627
79	0x3c6ce9b2	0.014460014
80	0xbcafee5a	-0.02147596
81	0x3cde5132	0.027138326
82	0x3ce3600a	0.027755756
83	0xbdda2f08	-0.10653502
84	0x3dafc718	0.08582896
85	0x3c83b640	0.016078115
86	0xbc774279	-0.015091532
87	0x3cbc9b30	0.023023218
88	0x3da6b1d7	0.08139389
89	0xbe2a5026	-0.16632137
90	0x3d91fb0a	0.0712796
91	0x3b07774e	0.0020670476
92	0x3bafac2d	0.005361101
93	0x3da563ac	0.080756515
94	0x3d698c2f	0.057018455
95	0xbc8c6494	-0.017137803
96	0x3d4d4e84	0.050123706
97	0xbd452344	-0.048129335
98	0xbe7de51a	-0.24794427
99	0xbd5ee70f	-0.054419573
100	0x3d28f2b8	0.0412471
101	0x3e4d49ea	0.20047727
102	0x3f112fef	0.56713766
103	0xbe082af6	-0.13297638
104	0x3debe81f	0.11518883
105	0xbe4bef1e	-0.19915435
106	0x3f0284aa	0.5098368
107	0xbe87e8a6	-0.26544684
108	0x3f03f6f7	0.51548713
109	0x3da64849	0.08119256
110	0x3f19fa6d	0.60147744
111	0x3d24dfe4	0.04025258
112	0xbd96ab97	-0.07356947
113	0xbd9dd86f	-0.07707297
114	0x3e4fd754	0.20296985
115	0x3f1c6de7	0.611052
116	0x3d84e43e	0.06488846
117	0xbd4623c7	-0.048373964
118	0xbd7579d8	-0.059930652
119	0x3ccd5a5b	0.025067499
120	0xbdc7455e	-0.097300276
121	0xbe064e15	-0.13115723
122	0x3e2a3dfd	0.16625209
123	0x3e986f3b	0.29772362
124	0x3e32fd05	0.17479332
125	0xbdea4e20	-0.114406824
126	0xbe7e8e04	-0.24858862
127	0xbd94c6ec	-0.07264504
128	0x3e8010fb	0.25012955
129	0x3b816cdb	0.003949744
130	0xbdd1df03	-0.10247614
131	0xbec51632	-0.38493496
132	0x3e3bf664	0.1835571
133	0xbdf8ffcc	-0.121581644
134	0x3dc41577	0.095744066
135	0xbe436400	-0.19081116
136	0xbec61bfe	-0.3869323
137	0x3e973da3	0.29539213
138	0x3f66bfb7	0.90136284
139	0x3e9337bd	0.28753462
140	0x3d2a96c6	0.041647695
141	0xbe2df045	-0.16986187
142	0xbe92560e	-0.2858128
143	0xbce7b90f	-0.028286485
144	0x3dbb9c97	0.091607265
145	0x3d5a2ee2	0.053267367
146	0x3ed327b0	0.41241217
147	0x3db83963	0.08995321
148	0x3f4a331d	0.7898424
149	0xbcc3d82a	-0.023906786
150	0xbd28fc0a	-0.04125599
151	0xbb64ec26	-0.0034930794
152	0x3b3c3a23	0.0028721176
153	0xbd220e1e	-0.039564244
154	0xbe4a91ca	-0.19782177
155	0xbdd24465	-0.102669515
156	0xbefddd32	-0.4958282
157	0xbe1d9ee7	-0.15392648
158	0xbe03e4ef	-0.128803
159	0x3e07f0ff	0.13275526
160	0x3cd5fc3b	0.02612125
161	0x3c5904f1	0.013245807
162	0x3ce98bd1	0.028509052
163	0x3ce23ea0	0.027617753
164	0xbc5ce6ce	-0.0134827625
165	0xbd4cd4ca	-0.05000762
166	0x3d0e8172	0.034791417
167	0xbc746588	-0.014916785
168	0xbd10254b	-0.035191815
169	0x3d884bc6	0.06655078
170	0x3e07933d	0.1323976
171	0xbd4c6944	-0.049905077
172	0x3e6a379c	0.22872776
173	0x3c1f3ca3	0.009719047
174	0x3b81804a	0.003952061
175	0x3cde623a	0.027146447
176	0xbc8a09db	-0.016850403
177	0xbcaf2895	-0.021381656
178	0x3d4523ee	0.04812997
179	0xbc0df205	-0.008663659
180	0xbc0506e0	-0.008119315
181	0xbc0c0330	-0.008545682
182	0x395f9ac3	0.0002132459
183	0xbcf92154	-0.0304114
184	0x3d23cc6d	0.039989877
185	0xbd30e98d	-0.04319148
186	0x3b2cd957	0.0026374662
187	0x3d68a769	0.05680028
188	0x3d5197f6	0.051170312
189	0xbcd30619	-0.025759744
190	0xbd28ab84	-0.041179195
191	0xbd07b2a2	-0.033129342
192	0xbd5d6db2	-0.05405969
193	0x3c88f646	0.016718995
194	0x3bd1543b	0.006388215
195	0xbd5be331	-0.053683463
196	0xbb9fa9c5	-0.004872533
197	0x3d1065e1	0.03525341
198	0x3cc49a83	0.023999458
199	0xbbe1f4cf	-0.0068956385
200	0xbd96fccf	-0.07372438
201	0x3c8fe15a	0.01756351
202	0xbdc4e8ab	-0.096146904
203	0x3d984bee	0.074363574
204	0xbda79b73	-0.081839465
205	0x3cab5b3b	0.020917526
206	0xbc519f75	-0.012794365
207	0x3baa5efb	0.005199311
208	0xbc82536e	-0.015908923
209	0xbd019981	-0.031640533
210	0xbc583494	-0.013196129
211	0x3c3aa147	0.011390991
212	0xbd3f5edc	-0.046721324
213	0xbc156c6e	-0.00912009
214	0xba181f5e	-0.0005803014
215	0xbb7405c0	-0.0037234873
216	0xbd2bf8ca	-0.04198531
217	0xbba70700	-0.00509727
218	0xbcd8a205	-0.026444444
219	0xbc1f749e	-0.009732394
220	0xbd1d70a5	-0.038437504
221	0xbaf99c42	-0.0019043761
222	0xbbe6b3ae	-0.0070404625
223	0x3ce403ad	0.027833784
224	0x3cee2cee	0.029074159
225	0x3c496189	0.012291321
226	0x3c8704bc	0.01648175
227	0x3be783a2	0.0070652524
228	0x3c2fac34	0.010722209
229	0x3bc8ef26	0.0061320243
230	0x3d275bee	0.040859155
231	0xbca1ebe0	-0.019765794
232	0x3cde1d3f	0.027113555
233	0xbd1e2757	-0.038611736
234	0x3bfbcda8	0.0076844282
235	0x3cfe3e1a	0.031035472
236	0x3e6a325c	0.22870773
237	0x3c31c9fd	0.01085138
238	0x3bfc288d	0.0076952637
239	0xbb7147bc	-0.0036816439
240	0x3b3ff422	0.0029289802
241	0x36e1927a	6.7225747e-06
242	0xbcb4e671	-0.02208254
243	0x3cbcec3e	0.023061868
244	0x3d2be6f4	0.0419683
245	0x3b9f98ed	0.004870525
246	0x3bffc475	0.007805402
247	0x3cb2c897	0.021824164
248	0xbd119ad3	-0.035548043
249	0xbc832bb9	-0.01601206
250	0xbde0a387	-0.1096869
251	0xbd99cf97	-0.07510298
252	0xbc5dcac8	-0.013537116
253	0x3d1a0296	0.037600122
254	0x3ac85f21	0.001528714
255	0xbbd881a3	-0.006607251

transformer_encoder.layers.0.self_attn.out_proj.bias f4 [32]
0	0xbc0bec46	-0.008540219
1	0xbda7bd65	-0.08190421
2	0x3c2c4d8f	0.010516538
3	0x3e62c60f	0.22145866
4	0x3cb8fd79	0.022581803
5	0x3e123e55	0.1428159
6	0xbdfb877c	-0.12281701
7	0x3cb1d1d2	0.021706495
8	0xbd4bca43	-0.04975344
9	0xbe9ae444	-0.30252278
10	0xbe45f6d1	-0.19332434
11	0x3de7d802	0.11320497
12	0x38506246	4.968259e-05
13	0x3e1975ec	0.1498639
14	0xbe218e6f	-0.1577699
15	0x3d684f1a	0.056716062
16	0xbde7e6ce	-0.113233194
17	0x3e17ca7c	0.14823335
18	0x3f138882	0.5763017
19	0x3e9442fe	0.2895736
20	0x3d8730c6	0.066011
21	0x3db5a481	0.08869267
22	0x3eb6bc6d	0.35690632
23	0x3db4243d	0.087959744
24	0xbc116c71	-0.008875952
25	0x3e92f6e2	0.28703982
26	0xbd5ec0ce	-0.05438309
27	0x3e1c724c	0.15277976
28	0xbc74947c	-0.01492798
29	0x3e8fab13	0.28060207
30	0xbe04eae6	-0.12980232
31	0x3d86e2fa	0.06586261

transformer_encoder.layers.0.linear1.weight f4 [64, 32]
0	0x3dffe848	0.12495476
1	0x3c9097a3	0.017650431
2	0x3a0c43d3	0.0005350683
3	0x3f4ab4a1	0.7918187
4	0x3e929f74	0.28637278
5	0x3e26e873	0.1629961
6	0x3c86a198	0.016434476
7	0x3e42c17a	0.19019118
8	0xbdbd9f55	-0.09258906
9	0xbe91be17	-0.2846534
10	0xbec33ed8	-0.38133883
11	0x3e4f298f	0.20230697
12	0xbd354aa1	-0.044260625
13	0x3e205eb1	0.15661122
14	0xbe0a25d7	-0.13490997
15	0x3e35e1d0	0.17761922
16	0xbd6fba69	-0.058527384
17	0xbd9268a7	-0.07148867
18	0x3f0f7c8d	0.56049424
19	0x3ee75e05	0.4518892
20	0xbca357a7	-0.019939257
21	0x3dfc6e98	0.123257816
22	0x3e7fefb1	0.24993779
23	0x3e3b51c0	0.18292904
24	0x3e1cac88	0.1530019
25	0x3ecb58c2	0.39716154
26	0xbd3987a1	-0.04529536
27	0xbecc5379	-0.39907435
28	0xbd137cac	-0.03600757
29	0x3ea72932	0.32648617
30	0xbe185e15	-0.1487964
31	0x3f27c608	0.65536547
32	0x3c8b980c	0.017040275
33	0xbe405772	-0.18783358
34	0x3f16145e	0.5862483
35	0xbe8c5ae3	-0.2741309
36	0x3f54f4db	0.8318612
37	0xbff68290	-1.9258595
38	0x40054261	2.0821764
39	0xbf9cdf15	-1.2255579
40	0x3fa58dd4	1.2933908
41	0x3e0895ef	0.13338445
42	0x3e038cf9	0.12846746
43	0xbf342c86	-0.7038044
44	0xbdfb9d36	-0.12285845
45	0xbf401c4d	-0.75043184
46	0xbc692375	-0.014229645
47	0x3be04867	0.0068445685
48	0x3f793fa2	0.9736272
49	0xbda6b40e	-0.081398115
50	0x3ea5eac6	0.3240568
51	0x3e842c88	0.25815225
52	0x3b1d2286	0.0023976876
53	0xbc8f4640	-0.017489552
54	0x3eb9adbc	0.3626536
55	0x3cf6c132	0.03012142
56	0x3e6c10d2	0.23053291
57	0xbdc50b1e	-0.09621261
58	0x3dbb7452	0.09153046
59	0x3e61d4b7	0.220538
60	0x3d90dc5a	0.07073279
61	0xbf765436	-0.96222246
62	0xbe289e84	-0.16466719
63	0x3e1907a4	0.14944321
64	0xbf50ac1f	-0.81512636
65	0x3f0ef13b	0.5583684
66	0xbe84a938	-0.25910354
67	0x3efcd45e	0.49380773
68	0x3e524b3a	0.20536509
69	0xbd7d114d	-0.061784077
70	0x3e048e06	0.12944803
71	0x3d3ff71e	0.04686653
72	0xbcd876a9	-0.02642377
73	0xbe94faa8	-0.29097486
74	0xbe99d176	-0.3004262
75	0x3c5c2e73	0.013438809
76	0xbda0d8f7	-0.07853883
77	0xbd25c575	-0.040471513
78	0xbe3792bf	-0.17927073
79	0x3dd4ecf5	0.103967585
80	0x3d2de374	0.042453244
81	0xbe98c2d3	-0.2983614
82	0x3efa1628	0.4884503
83	0x3f29162c	0.66049457
84	0x3f02ff08	0.51170397
85	0x3bf025c2	0.00732872
86	0x3f21d654	0.63217664
87	0x3d4b3d6b	0.04961912
88	0x3dfb9163	0.1228359
89	0x3ec39d9a	0.38206178
90	0xbd642b8f	-0.055705603
91	0xbc32df55	-0.010917504
92	0xbdff6ffb	-0.124725305
93	0x3cdd9d80	0.02705264
94	0xbd39ef6d	-0.04539435
95	0x3f437f1d	0.76365834
96	0xbbe60111	-0.00701917
97	0xbea0605e	-0.31323522
98	0xbec9a1a4	-0.39381135
99	0xbe7859c5	-0.24252994
100	0xbe11e202	-0.14246371
101	0xbdd65a9a	-0.104664996
102	0xbe3d2b95	-0.18473656
103	0xbd988e85	-0.074490584
104	0xbde6ef13	-0.112760685
105	0xbe0470a4	-0.12933594
106	0xbe7417ac	-0.23837155
107	0xbdb805d8	-0.089854896
108	0xbdd16a60	-0.102253675
109	0xbcbbc699	-0.022921847
110	0xbf1719d8	-0.5902381
111	0x3e18846f	0.1489427
112	0xbe200460	-0.15626669
113	0xbe3eec97	-0.1864494
114	0xbdaa23e6	-0.08307628
115	0xbe1d4c62	-0.15361169
116	0xbe925ea8	-0.28587842
117	0xbd3eec85	-0.04661228
118	0xbc38999f	-0.011267095
119	0xbda9a3f6	-0.08283226
120	0xbd00f034	-0.031479076
121	0xba81cfe1	-0.0009903872
122	0x3f8d1c31	1.1024228
123	0xbe035416	-0.12825045
124	0xbc255720	-0.010091573
125	0xbc9081f1	-0.017640086
126	0xbde45bbc	-0.111503094
127	0xbed47b59	-0.41500357
128	0x3dc94882	0.09828283
129	0x3e4e0b4e	0.201215
130	0xbbaa9a74	-0.0052064005
131	0x3eac90ce	0.33704227
132	0x3f716b1e	0.9430407
133	0xbd1b2fad	-0.037887264
134	0x3dea483d	0.114395596
135	0x3dced72f	0.10099637
136	0xbd761d28	-0.0600864
137	0xbf151fe4	-0.58251786
138	0xbeae1f7a	-0.3400839
139	0x3d24d37a	0.040240742
140	0xbdc4bf5e	-0.09606813
141	0x3d9461aa	0.072451904
142	0xbf059b9e	-0.5219058
143	0x3e5b8594	0.21437675
144	0xbd03e02c	-0.03219621
145	0xbf77dfa7	-0.9682564
146	0x3ef3daa2	0.4762774
147	0x3f564473	0.83698195
148	0x3f6b025a	0.91800463
149	0x3dafae59	0.08578176
150	0x3eccc7d1	0.39996198
151	0x3e19705d	0.1498427
152	0x3df53f34	0.11974946
153	0x3f0725e1	0.52792174
154	0xbc9bfa5a	-0.019040275
155	0xbf1c3d4e	-0.61031044
156	0xbcb3e421	-0.021959366
157	0x3e31b22a	0.1735312
158	0xbea056d1	-0.31316236
159	0x3f0c0f00	0.5471039
160	0xbd010b9d	-0.031505216
161	0x3e4b1409	0.19831862
162	0xbf24c7ad	-0.6436718
163	0x3e4f4273	0.20240192
164	0xbda3ce3f	-0.07998323
165	0xbf032b85	-0.5123828
166	0x3f038df7	0.51388496
167	0xc0365300	-2.848816
168	0x4076d1a7	3.8565462
169	0x3e81d99a	0.2536133
170	0x3dc143eb	0.094367824
171	0xc00aa44c	-2.166278
172	0xbdd8d558	-0.10587567
173	0xbfcaa7c0	-1.5832443
174	0xbdd6d138	-0.10489124
175	0xbe3f46d5	-0.18679364
176	0x403148a5	2.7700589
177	0x3d247e54	0.04015954
178	0x3e969d08	0.2941668
179	0x3c17ae67	0.009257889
180	0x3c7a434f	0.015274837
181	0xbdb48bc8	-0.08815724
182	0x3ebb4ee0	0.36583614
183	0xbe25a6c0	-0.16176891
184	0x3d87ea69	0.06636507
185	0xbe53b2f9	-0.20673741
186	0x3dcf5ca2	0.1012509
187	0xbd9a4230	-0.075321555
188	0x3dbfb21d	0.09360144
189	0xbfb66a36	-1.4251163
190	0xbe03b0cb	-0.1286041
191	0x3ef9c1e8	0.4878075
192	0xbe166ffe	-0.14691159
193	0x3e6af6a3	0.22945647
194	0xbec4a389	-0.38406017
195	0xbe029a53	-0.12754183
196	0x3eae65c4	0.34062016
197	0x3c9cc1d1	0.019135388
198	0xbd5e9114	-0.054337576
199	0xbdc6d362	-0.09708287
200	0x3e0e2e64	0.13884884
201	0xbe8bc401	-0.27297977
202	0x3e88e3fe	0.26736444
203	0x3d9367ba	0.07197519
204	0x3da15487	0.078774504
205	0x3dcdde0f	0.1005212
206	0x3dd0ca73	0.10194864
207	0xbdce41d4	-0.100711495
208	0xbbcad179	-0.006189522
209	0xbe7cbe77	-0.24682032
210	0x3f2e0b2f	0.67985815
211	0x3d8d302f	0.06893956
212	0x3e1ee514	0.15517074
213	0x3d73de7f	0.05953836
214	0x3e147ed8	0.14501512
215	0x3ce842aa	0.0283521
216	0x3cd579ab	0.026058992
217	0xbca3ae91	-0.0199807
218	0x3cd90f69	0.026496606
219	0xbe86e623	-0.26347455
220	0x3c939038	0.018013105
221	0x3e38a6e8	0.1803242
222	0xbeaeda9b	-0.34151158
223	0x3e5bb522	0.21455815
224	0x3f7948ec	0.97376895
225	0x3e8b5f44	0.2722112
226	0xbe9b466f	-0.30327174
227	0x3f019640	0.5061989
228	0xbee1fa93	-0.44136485
229	0xbfad6c8a	-1.3548748
230	0x3cc22cce	0.023703005
231	0xbef1adab	-0.4720281
232	0x3f113d16	0.56733835
233	0x3e1b1713	0.15145521
234	0x3f116849	0.5679975
235	0xbec45c46	-0.3835165
236	0x3e17096c	0.14749688
237	0xbeb22d57	-0.34800217
238	0x3ed9828a	0.42482406
239	0xbe587e7d	-0.21142001
240	0x3ef7a173	0.48365363
241	0x3d3ac9e1	0.045602683
242	0xbdf8bca6	-0.12145357
243	0xbb88a0bd	-0.004169552
244	0x3e55bf7e	0.2087383
245	0xbdd13c3d	-0.10216568
246	0xbcb759fc	-0.022381775
247	0xbe2ae242	-0.16687873
248	0xbdc21c38	-0.094780385
249	0xbec00a84	-0.37508023
250	0x3e11eaca	0.14249721
251	0x3e3d109f	0.18463372
252	0x3e1b54a7	0.15169011
253	0xbeaad676	-0.33366746
254	0xbe02ad27	-0.12761365
255	0x3e216fea	0.15765348

transformer_encoder.layers.0.linear1.bias f4 [64]
0	0xbf994e55	-1.197703
1	0xbe34ec66	-0.17668304
2	0xbf453fa9	-0.7705026
3	0x3edb0524	0.4277736
4	0xbf28bef3	-0.65916365
5	0x3da56d1c	0.080774516
6	0xbe97ace2	-0.29624087
7	0xbf2603a0	-0.6484928
8	0xbebc7db1	-0.36814645
9	0x3e0e2c66	0.13884124
10	0xbd270933	-0.040780257
11	0xbe7af2d8	-0.245067
12	0xbec5c868	-0.3862946
13	0xbca38dbd	-0.019965047
14	0x3f1a539e	0.6028384
15	0x3ea6ac16	0.32553166
16	0x3d3c10af	0.04591435
17	0x3dd642cc	0.10461959
18	0xbf0625f9	-0.5240169
19	0xbeb05f3a	-0.34447652
20	0xbf9f9858	-1.2468367
21	0xbe641156	-0.22272238
22	0x3df96bd6	0.12178771
23	0x3d80b9c1	0.0628543
24	0xbe471ca6	-0.19444522
25	0xbf0624e4	-0.5240004
26	0xbf1ecd03	-0.62031573
27	0x3eeeaaaf	0.46614596
28	0xbe751202	-0.2393265
29	0xbd16207a	-0.036652066
30	0xbf0392cf	-0.5139589
31	0xbe6d73a2	-0.23188642
32	0xbebc7366	-0.36806792
33	0xbd28f0ba	-0.0412452
34	0x3e30d3bd	0.17268272
35	0xbe15bcfc	-0.14622873
36	0xbe7273d3	-0.23676996
37	0xbf8014fe	-1.0006406
38	0x3a2674e5	0.0006349816
39	0x3ef58f86	0.47961062
40	0xbf951d26	-1.164952
41	0x3da6ecbe	0.08150624
42	0xbf4ac9e5	-0.79214317
43	0xbf2c3a7e	-0.6727675
44	0xbf16ddcb	-0.5893218
45	0xbdf113f1	-0.11771382
46	0x3ea67d8b	0.32517657
47	0xbe49dbe1	-0.19712783
48	0xbf0c0892	-0.5470058
49	0xbf5659a2	-0.8373052
50	0x3e43707e	0.19085881
51	0x3e467022	0.19378713
52	0xbf1d7efa	-0.61521876
53	0xbdcaa05c	-0.098938674
54	0xbe31c045	-0.17358501
55	0x3cb21238	0.021737203
56	0xbe7cd5b6	-0.24690899
57	0x3dc79010	0.097442746
58	0xbf86cc59	-1.0531112
59	0x3d4458a4	0.047936097
60	0x3f06d2cd	0.52665406
61	0xbeca193c	-0.39472377
62	0xbe683549	-0.22676577
63	0x3eb0651b	0.34452137

transformer_encoder.layers.0.linear2.weight f4 [32, 64]
0	0xbc141c43	-0.009039941
1	0xbe34e0ae	-0.17663833
2	0x3e8eb10b	0.27869448
3	0x3c872355	0.01649634
4	0x3c310583	0.010804537
5	0xbf54e782	-0.8316575
6	0xbd8e4c7a	-0.069481805
7	0xbe096efd	-0.13421245
8	0x3e5643bb	0.20924275
9	0x3e6cc7b1	0.23123051
10	0x3d56e46a	0.052463926
11	0xbe38d9df	-0.18051861
12	0xbe251086	-0.16119584
13	0x3ec35308	0.38149285
14	0x3abfc8d6	0.0014631997
15	0xbd1b04a7	-0.037846234
16	0x3e0293c5	0.12751682
17	0xbce9b4f8	-0.028528675
18	0x3cd49229	0.0259486
19	0xbd5c3052	-0.05375702
20	0xbd235251	-0.039873425
21	0xbed4b88e	-0.41547054
22	0x3e0b618f	0.13611434
23	0xbdb1014e	-0.08642827
24	0x3e504341	0.20338155
25	0xbb54decc	-0.003248143
26	0xbe108181	-0.14111902
27	0x3ee8eddd	0.45493975
28	0x3d6da772	0.058021016
29	0xbe6e3d94	-0.23265678
30	0x3e13e286	0.1444188
31	0xbe637396	-0.22212061
32	0xbe983208	-0.2972567
33	0xbe656807	-0.22402965
34	0x3e4aa431	0.19789197
35	0x3d6b9c9d	0.057522405
36	0xbea969b1	-0.3308845
37	0x3e1f6090	0.1556418
38	0x3dabf17e	0.0839567
39	0x3cc07613	0.023493802
40	0xbdc26694	-0.094922215
41	0xbe20d050	-0.15704465
42	0xbc95669b	-0.018237403
43	0xbe454e20	-0.19268084
44	0xbecb8537	-0.39750072
45	0xbdfc6f05	-0.12325863
46	0xbef04060	-0.46924114
47	0xbf33e207	-0.70266765
48	0x3e545153	0.20734148
49	0xbd051ba7	-0.032497074
50	0x3c89d11d	0.016823346
51	0x3d6bab1c	0.05753623
52	0x3c9666d8	0.018359587
53	0x3d952391	0.072821744
54	0xbf033c58	-0.5126395
55	0xbe85c9c8	-0.2613051
56	0xbe1d91d5	-0.15387662
57	0x3ed77491	0.4208112
58	0x3ca4ffd1	0.020141514
59	0x40a9ba8d	5.3040223
60	0xbe0509f1	-0.12992074
61	0xbecf8079	-0.40527704
62	0x3dd2f3d0	0.1030041
63	0x3c355c18	0.01106932
64	0x3e0cfecd	0.13769074
65	0x3d70af47	0.058760908
66	0x3dadf968	0.08494836
67	0x3d3650c3	0.044510614
68	0x3dbe10a6	0.09280519
69	0xbefe6df1	-0.49693254
70	0x3c5cfc93	0.013487953
71	0x3eb54998	0.3540771
72	0x3dca09a4	0.0986512
73	0xbe2f4500	-0.17116165
74	0x3d1caabf	0.038248774
75	0x3e7593e0	0.23982191
76	0xbd108144	-0.035279527
77	0xbe37d3c8	-0.17951882
78	0xbd4be38a	-0.049777545
79	0xbdcb3910	-0.09922993
80	0x3eb052ea	0.34438258
81	0x3df09f85	0.11749176
82	0xbca2a81d	-0.019855553
83	0x3dd409a0	0.10353398
84	0xbd76ba61	-0.06023634
85	0xbfc226d8	-1.5168104
86	0x3d965882	0.073411
87	0xbe2534ed	-0.16133471
88	0xbec601a3	-0.38673124
89	0xbcec97ad	-0.028880918
90	0x3d2deba1	0.04246104
91	0x3c9fa2c4	0.019486792
92	0xbd74d65e	-0.05977475
93	0xbe93c369	-0.28860024
94	0xbc02286c	-0.007944208
95	0xbfaaa23c	-1.333076
96	0xbd9114d8	-0.07084054
97	0xbf57b5b5	-0.8426164
98	0x3ea7e980	0.32795334
99	0xbd0dd0b8	-0.034622878
100	0xbd9e3777	-0.07725423
101	0xbd849206	-0.06473164
102	0x3d6c46e3	0.05768479
103	0x3c71113c	0.014713582
104	0x3d3250dc	0.043534145
105	0xbc8e5b8b	-0.017377635
106	0x3d56cbde	0.052440517
107	0x3dffe847	0.12495475
108	0x3d049f98	0.032378763
109	0x3e7fe2f2	0.24988917
110	0xbe73a316	-0.23792681
111	0x3d51a5b1	0.051183406
112	0x3c89f8ce	0.016842272
113	0xbd94bada	-0.072622016
114	0xbcc417b6	-0.023937088
115	0x3ec8d073	0.39221534
116	0x3cae3f9b	0.021270564
117	0x3d01d693	0.031698775
118	0xbe8067d6	-0.2507922
119	0x3fb36505	1.4015204
120	0x3fd7c7f2	1.6857893
121	0x3d65d532	0.056111522
122	0xbde2ce08	-0.110744536
123	0xc0a8ba27	-5.2727237
124	0x3cb95460	0.022623241
125	0x3da895a7	0.08231669
126	0x3be1ca2f	0.0068905572
127	0x3d3914a5	0.045185704
128	0xbd4677d3	-0.048454117
129	0x3db3c97a	0.08778663
130	0xbdb19a53	-0.08672013
131	0x3d71c090	0.059021533
132	0xbca9208e	-0.020645406
133	0xbde11571	-0.10990418
134	0xbb33cd09	-0.0027435443
135	0x3cc88d84	0.024481542
136	0x3da39981	0.07988263
137	0x3e5f0f8a	0.21783271
138	0xbceabdf3	-0.028655028
139	0x3e0a6d2f	0.13518213
140	0xbc810ef7	-0.015754206
141	0xbda05a95	-0.07829777
142	0xbe0fcd88	-0.14043248
143	0xbdbb802c	-0.09155306
144	0x3d8c461b	0.06849309
145	0x3d1547cd	0.036445428
146	0x3cb962ce	0.022630122
147	0x3b8cb33b	0.004293827
148	0xbe904a58	-0.2818172
149	0x3cc08e55	0.02350537
150	0xbc8d9252	-0.017281685
151	0x3dde94df	0.10868239
152	0x3ee41840	0.4454975
153	0x3c9d53c4	0.019204982
154	0x3cff460b	0.031161329
155	0xbcbebe6a	-0.023284156
156	0xbacdf51f	-0.001571331
157	0x3ef5b905	0.4799272
158	0x3bf95950	0.007609524
159	0xbdcf6725	-0.10127095
160	0xbc99fa3d	-0.01879608
161	0x3ea0a70b	0.31377444
162	0xbbbfe8a8	-0.005856592
163	0x3cf8d38c	0.03037431
164	0xbc9b273a	-0.018939603
165	0x3c1bd3fb	0.009510989
166	0x3c5a79b2	0.0133346785
167	0xb99bd859	-0.00029725095
168	0xbdad8453	-0.084725045
169	0xbcfceb53	-0.03087393
170	0x3c7c0943	0.015383068
171	0x3e053d30	0.13011622
172	0x3da28a3b	0.079365216
173	0xbc00b120	-0.00785473
174	0x3d3e85d7	0.04651436
175	0xbc633d75	-0.013869633
176	0x3d710208	0.058839828
177	0x3cd26678	0.025683627
178	0x3a620e5e	0.00086233567
179	0x3ff9e1d4	1.9522042
180	0xbd92be7c	-0.07165238
181	0xbd804e87	-0.06264978
182	0x3d97e545	0.074167766
183	0xc0b2eb71	-5.5912404
184	0xc0915140	-4.541168
185	0x3f8357cc	1.0261168
186	0x3e513ca2	0.20433286
187	0x3fc1c882	1.5139315
188	0x3dac9513	0.08426871
189	0xbd010a20	-0.031503797
190	0x3bc9a73d	0.0061539696
191	0x3ba48fa3	0.0050220056
192	0xbe040bfa	-0.12895194
193	0x3f922012	1.1416037
194	0xbe7b6c15	-0.24552949
195	0xbdd7fa00	-0.105457306
196	0xbf01955b	-0.50618523
197	0x3edd1969	0.4318345
198	0x3e8915e0	0.26774502
199	0x3f64a75b	0.89317864
200	0xbdd5b3ca	-0.10434683
201	0x3f9e9976	1.2390583
202	0x3d2d0976	0.04224535
203	0xbe07681a	-0.13223305
204	0xbcd053a5	-0.02543051
205	0xbd9ecb93	-0.077536725
206	0xbe19a876	-0.15005669
207	0x3f8349cc	1.0256896
208	0xbe33ab3b	-0.17545788
209	0xbdb8afba	-0.09017892
210	0xbd41d6ea	-0.0473241
211	0xbc8587cb	-0.016300103
212	0x3dc58a7d	0.09645555
213	0xc0216a52	-2.5221143
214	0x3dd61118	0.10452479
215	0x3ebb8bad	0.36630002
216	0xbfb647cc	-1.4240661
217	0xbd04c8a2	-0.0324179
218	0x3e5a57ac	0.21322507
219	0xbe1c4f22	-0.15264562
220	0x3e0268e1	0.1273532
221	0x3f572b5b	0.8405053
222	0x3d81ea66	0.06343536
223	0xbfe0b66c	-1.7555671
224	0x3cbb5087	0.022865547
225	0x3e96a39f	0.29421708
226	0xbe5ef257	-0.21772133
227	0xbd55925c	-0.052141532
228	0xbe50569c	-0.20345539
229	0x3d55eb4f	0.05222636
230	0x3e15f58e	0.14644453
231	0xbe3a4178	-0.18189037
232	0x3da53937	0.080675535
233	0xbe342c31	-0.17594983
234	0xbaa86382	-0.0012847038
235	0xbe2bcfce	-0.1677849
236	0x3d5e3d58	0.05425772
237	0xbe9b0c8f	-0.3028302
238	0x3fca524d	1.5806366
239	0x3c18aee4	0.009319041
240	0x3c5dbc7b	0.013533707
241	0x3c81cb30	0.015843958
242	0xbd13916f	-0.03602737
243	0x3ea86f91	0.32897618
244	0xbf1c09ad	-0.60952264
245	0x3c638e87	0.013888962
246	0x3faa5760	1.3307915
247	0xc0ec3ea2	-7.3826456
248	0xc0e115aa	-7.0338945
249	0x3e9c6ec7	0.30553266
250	0x3c99a4f0	0.018755406
251	0x40725c60	3.7868881
252	0xbd02fcca	-0.03197936
253	0x3f98da22	1.1941569
254	0x3df6f616	0.12058656
255	0xbf0d4cb8	-0.5519519

transformer_encoder.layers.0.linear2.bias f4 [32]
0	0xbc71a534	-0.01474886
1	0xbbdeb36d	-0.0067962916
2	0x3c3ddfa7	0.011588967
3	0xbb5d8e02	-0.0033806567
4	0xbd0d6bb4	-0.03452654
5	0x3eacabb8	0.3372476
6	0xbe322839	-0.17398156
7	0x3cce2de0	0.02516836
8	0xbcf94897	-0.030430121
9	0xbd94800d	-0.07250986
10	0x3d431cc8	0.04763487
11	0x3e10091b	0.14065973
12	0x3d386a83	0.045023452
13	0x3e64a0f5	0.22327025
14	0xbe0ebe92	-0.13939884
15	0xbee8f5a7	-0.45499918
16	0xbe1485de	-0.14504191
17	0xbd525d1d	-0.05135833
18	0x3e1f76e5	0.15572698
19	0xbd05c989	-0.032662902
20	0x3df39dec	0.118953556
21	0x3e30fbad	0.17283507
22	0x3da81b00	0.08208275
23	0x3deab36f	0.114600055
24	0xbcdb9a4d	-0.026806975
25	0xbd662abf	-0.05619311
26	0xbd8ea6db	-0.06965419
27	0x3d73517f	0.059403893
28	0x3d2c511e	0.042069547
29	0xbd811350	-0.06302512
30	0xbcfaf328	-0.030633524
31	0x3d3d8f17	0.04627904

transformer_encoder.layers.0.norm1.weight f4 [32]
0	0x3fffb57e	1.9977262
1	0x4014e56f	2.3265035
2	0x3ff67659	1.9254867
3	0x3ed74722	0.42046458
4	0x3f077991	0.5291987
5	0x3f4c254d	0.79744416
6	0x3f850e04	1.0394902
7	0x3f911d23	1.1337017
8	0x3f9a2183	1.2041477
9	0x3f0592b2	0.52176964
10	0x3f069cd7	0.5258307
11	0x3f9312fc	1.1490169
12	0x3f9edde9	1.2411472
13	0x3f734cf1	0.9503928
14	0x3f918e4b	1.1371549
15	0x3f7cf367	0.988089
16	0x3fa78db8	1.3090124
17	0x3ee60d88	0.449322
18	0x3ef493d3	0.4776903
19	0x3ea8b800	0.3295288
20	0x3ea0758d	0.31339684
21	0x3fc749a0	1.5569344
22	0x3ed99b22	0.4250117
23	0x3fabe9df	1.3430747
24	0x3f5f38fd	0.8719633
25	0x3f263b58	0.649343
26	0x3fe88108	1.8164377
27	0x3ed8be20	0.42332554
28	0x3fe69f4e	1.8017366
29	0x3f2e6555	0.6812337
30	0x3f367d46	0.712849
31	0x3e8ec438	0.27884078

transformer_encoder.layers.0.norm1.bias f4 [32]
0	0x3de6d792	0.112715855
1	0x3e3718c9	0.17880549
2	0x3eedc23e	0.46437258
3	0xbf1f2f61	-0.6218167
4	0xbe051298	-0.12995374
5	0x3c917dd0	0.017760187
6	0x3e732221	0.23743488
7	0xbea37661	-0.31926253
8	0x3e51acfa	0.20476142
9	0xbdf7f4ca	-0.12107237
10	0x3ed07977	0.4071767
11	0xbdcabdfd	-0.09899519
12	0x3eb723e6	0.35769576
13	0xbed28575	-0.41117445
14	0x3ebc8209	0.3681796
15	0xbe36a58d	-0.1783659
16	0x3e64164e	0.22274134
17	0x3e921e3a	0.28538686
18	0xbe485498	-0.1956352
19	0xbf260020	-0.6484394
20	0xbe0eb283	-0.13935284
21	0xbeaa007c	-0.33203495
22	0xbf025dba	-0.50924265
23	0xbe8b35c8	-0.2718947
24	0xbd479b70	-0.04873222
25	0xbe8cc415	-0.2749335
26	0x3d9db7c5	0.07701067
27	0xbe8b4ec2	-0.27208525
28	0x3e3c8f2e	0.18413994
29	0xbe9a73a4	-0.30166352
30	0x3ce8683a	0.028370012
31	0xbeceb7e3	-0.4037467

transformer_encoder.layers.0.norm2.weight f4 [32]
0	0x3fbb5377	1.4634846
1	0x3faab235	1.3335634
2	0x3fc7c928	1.5608263
3	0x3f39c5b4	0.72567296
4	0x3f80f167	1.007367
5	0x3f54e621	0.8316365
6	0x3f144800	0.57922363
7	0x3eb4663f	0.35234258
8	0x3f3988a5	0.7247413
9	0x3ea359af	0.3190436
10	0x3f327ef5	0.6972497
11	0x3eaeabe7	0.34115526
12	0x3f9a5e0b	1.205995
13	0x3f09113b	0.53541917
14	0x3f497da7	0.78707355
15	0x3ed9c4a5	0.4253284
16	0x3f302544	0.6880686
17	0x3f232871	0.63733584
18	0x3ef4041f	0.47659394
19	0x3fb44dab	1.4086202
20	0x3f9640ee	1.1738565
21	0x3f03a19f	0.5141849
22	0x3f9eb2cf	1.2398318
23	0x3ea4424b	0.32081828
24	0x3f6ad9a4	0.91738343
25	0x3f5886c5	0.8458064
26	0x3f77fae0	0.9686718
27	0x3f739700	0.9515228
28	0x3f8ab157	1.083537
29	0x3f1ac9d3	0.6046421
30	0x3f961da1	1.1727792
31	0x3f7fed18	0.9997115

transformer_encoder.layers.0.norm2.bias f4 [32]
0	0x3d8fbfec	0.07019028
1	0x3ea603a9	0.32424667
2	0xbe78994f	-0.24277233
3	0xbdc265f4	-0.09492102
4	0x3c905f20	0.017623484
5	0xbec8b46d	-0.39200154
6	0x3ee9fa69	0.4569886
7	0xbe7caed3	-0.24676065
8	0x3f2f476d	0.6846836
9	0xbd085649	-0.033285413
10	0x3c5d5f05	0.013511424
11	0xbf114070	-0.5673895
12	0xbedf6647	-0.4363272
13	0xbe541344	-0.20710474
14	0xbd8d7dbe	-0.06908749
15	0xbe92ea86	-0.28694552
16	0x3f114f22	0.5676137
17	0xbe4f1379	-0.20222272
18	0xbd1c2634	-0.03812237
19	0x3e856082	0.26050192
20	0x3d496e85	0.049177665
21	0xbee83c45	-0.45358482
22	0x3e9b0f35	0.3028504
23	0xbec459ec	-0.38349855
24	0x3e886798	0.26641536
25	0xbe1cf2ca	-0.15326992
26	0x3e6f17b6	0.23348889
27	0x3e6e618a	0.23279396
28	0x3f185189	0.5949941
29	0xbe3938d7	-0.18088089
30	0xbdf8c2ab	-0.12146505
31	0x3def9274	0.116978556

transformer_encoder.layers.1.self_attn.in_proj_weight f4 [96, 32]
0	0x3d6d17f1	0.05788416
1	0xbf0269a5	-0.5094245
2	0x3fa7309f	1.3061713
3	0xbef7d382	-0.48403555
4	0x3dde8c05	0.1086655
5	0xbf009ae0	-0.5023632
6	0x3edef048	0.43542695
7	0x3eeee0fc	0.46656024
8	0x3e5a9b1b	0.2134823
9	0xbe1f31c9	-0.15546335
10	0xbed9038e	-0.42385525
11	0x3ed11276	0.40834397
12	0xbe7a89ef	-0.2446668
13	0xbf238ba3	-0.63884944
14	0xbf2c400b	-0.6728522
15	0x3d368fd8	0.044570774
16	0xbe38656f	-0.18007444
17	0xbf0401eb	-0.51565427
18	0xbe9ba96b	-0.30402693
19	0xbd535214	-0.051591948
20	0x3ebf5b4c	0.3737434
21	0xbce3e2b9	-0.02781807
22	0x3d5e907c	0.05433701
23	0x3f1b56a0	0.60679054
24	0xbbc83f71	-0.0061110784
25	0x3f04ee0c	0.5192573
26	0xbe8706ce	-0.2637238
27	0xbd86e8e6	-0.065873906
28	0xbeb9fb2b	-0.36324438
29	0xbe278b30	-0.1636169
30	0xbe3af132	-0.18256071
31	0xbe80b265	-0.25136104
32	0x3e4feed0	0.20305943
33	0xbde97a7f	-0.114003174
34	0xbe65e839	-0.22451867
35	0xbe7bb44c	-0.24580497
36	0xbeb1c861	-0.3472319
37	0xbef13f75	-0.47118726
38	0xbef3bc64	-0.47604668
39	0x3e0e3aa3	0.13889556
40	0x3e2f0e53	0.17095308
41	0x3dc92eb1	0.09823359
42	0xbcd433af	-0.02590355
43	0x3e34ef03	0.176693
44	0xbe829695	-0.2550551
45	0x3e03c7c6	0.12869176
46	0xbc395d40	-0.011313736
47	0xbd545e43	-0.051847707
48	0xbe84cd4e	-0.25937885
49	0x3d8a7ee6	0.06762485
50	0x3d9b2077	0.075745516
51	0xbe9d57c3	-0.3073102
52	0xbdd77d02	-0.1052189
53	0x3f91e08e	1.1396654
54	0xbe7d17e0	-0.24716139
55	0x3eefd15b	0.46839413
56	0xbe9e2437	-0.30887005
57	0x3eb5a2d0	0.3547578
58	0xbfa3c4d2	-1.279444
59	0xbdd2f107	-0.102998786
60	0xbf593223	-0.8484213
61	0x39ce6569	0.00039366938
62	0x3ed7045d	0.41995516
63	0xbe88da11	-0.2672887
64	0x3e972891	0.29523137
65	0x3eb3ff6f	0.35155818
66	0xbe731b00	-0.23740768
67	0xbe1c739c	-0.15278476
68	0xbeb103d0	-0.3457322
69	0xbe504232	-0.20337752
70	0x3e98d53f	0.29850194
71	0xbec3ccd5	-0.38242212
72	0x3e756890	0.23965669
73	0x3dc34b61	0.09535862
74	0x3ce1216a	0.027481753
75	0xbf5ad212	-0.8547679
76	0xbe35046c	-0.17677468
77	0xbf6cc48d	-0.9248741
78	0xbd90a0a0	-0.07061887
79	0xbe4c3a96	-0.19944224
80	0x3e94797c	0.28998935
81	0x3eeefc93	0.46677074
82	0x3e8d361d	0.27580348
83	0xbe1baed2	-0.15203407
84	0xbd1e34d3	-0.038624596
85	0xbfaf80eb	-1.3711218
86	0xbebd5711	-0.3698049
87	0xbed8cafd	-0.42342368
88	0x3eebdd02	0.46067053
89	0xbe7b8319	-0.24561729
90	0x3f516d0a	0.81807005
91	0xbe170c71	-0.1475084
92	0x3f2a06f4	0.6641686
93	0xbe918b43	-0.2842656
94	0x3e5c720d	0.21527882
95	0x3e02800f	0.12744163
96	0xbe21a13d	-0.15784164
97	0x3ec83773	0.39104804
98	0xbcea9d7c	-0.028639548
99	0x3e742930	0.23843837
100	0xbe07bcf7	-0.13255678
101	0xbdb6fd9b	-0.0893509
102	0x3e29b011	0.1657107
103	0xbf4f22eb	-0.80912656
104	0x3e8db828	0.27679563
105	0xbea4610a	-0.32105285
106	0x3ecab880	0.39593887
107	0x3efa18ae	0.48846954
108	0x3e8dde0a	0.27708465
109	0x3ef22683	0.47295007
110	0xbe4dd55c	-0.20100921
111	0xbef88e9d	-0.48546305
112	0xbbbaa7bc	-0.005696265
113	0xbe05a52d	-0.13051291
114	0x3f1ae450	0.6050463
115	0x3e9bad40	0.30405617
116	0x3e51aef2	0.20476893
117	0x3f83473f	1.0256118
118	0xbe33f58c	-0.17574137
119	0x3e9e0dbd	0.30869856
120	0x3ebd6701	0.36992648
121	0x3d804537	0.06263202
122	0xbe1904f6	-0.14943299
123	0xbd0601ea	-0.03271667
124	0xbd4f04c6	-0.05054166
125	0x3ddd3ad6	0.10802238
126	0x3de22d3e	0.110437855
127	0xbdecae4f	-0.11556684
128	0x3edb4378	0.42824912
129	0x3e2910dc	0.16510338
130	0xbf186e1f	-0.5954303
131	0xbe01bb3d	-0.12669082
132	0x3ea8dbca	0.32980186
133	0xbed21b93	-0.41036662
134	0x3d8ab36e	0.06772505
135	0xbd1cdbbf	-0.038295504
136	0xbe4bd8b4	-0.19906884
137	0x3dce8fc0	0.10086012
138	0x3e3bb5d9	0.18331088
139	0x3de08602	0.1096306
140	0xbd74f1c2	-0.05980087
141	0x3f087c10	0.53314304
142	0xbd4339b2	-0.047662444
143	0x3e8e5c23	0.2780467
144	0x3ebca9db	0.3684834
145	0x3eda99bc	0.42695415
146	0x3da0219f	0.07818913
147	0xbe46b87a	-0.1940631
148	0xbec0a6f2	-0.3762737
149	0xbeb612bf	-0.35561177
150	0xbce6df4f	-0.028182654
151	0xbca32fa8	-0.019920185
152	0x3d7fc4c5	0.062443513
153	0x3e081012	0.1328738
154	0x3ec35b7b	0.38155732
155	0xbe85506b	-0.26037917
156	0x3eeda42e	0.46414322
157	0x3dd07eb9	0.101804204
158	0x3e7969ba	0.24356738
159	0xbd9f09d1	-0.07765544
160	0xbe7aa218	-0.24475896
161	0xbecb1328	-0.39663053
162	0x3e39e2f4	0.18152982
163	0x3d8bf83c	0.06834456
164	0xbe9ae079	-0.30249384
165	0x3e0fdfaa	0.14050165
166	0xbe2ba8cf	-0.16763614
167	0xbe56a161	-0.20959999
168	0x3dca3a81	0.0987444
169	0x3ece6de2	0.4031821
170	0xbec1dfa5	-0.3786594
171	0x3f126ea2	0.5720006
172	0x3ed78212	0.42091423
173	0x3e78351c	0.2423901
174	0xbf0c245b	-0.54742974
175	0xbf03e682	-0.515236
176	0x3dcbeb12	0.099569455
177	0x3e9a9a3f	0.30195805
178	0xbedcf2de	-0.43154043
179	0xbe046680	-0.12929726
180	0x3e42eeec	0.19036454
181	0x3f16064b	0.5860335
182	0x3dd46cc5	0.10372309
183	0x3f580741	0.8438607
184	0x3cf5000c	0.029907249
185	0xbd7bec6c	-0.061504766
186	0xbdc3ac9f	-0.09554409
187	0x3f259ed2	0.64695466
188	0xbef51da7	-0.47874185
189	0xbf18d467	-0.596991
190	0xbd09ecbf	-0.033673044
191	0x3d0152c9	0.03157309
192	0xbcd3d828	-0.025859907
193	0xbf0a7865	-0.5408996
194	0x3f216863	0.63049906
195	0xbe91157a	-0.28336698
196	0xbe0edd3a	-0.13951579
197	0xbf8952e7	-1.0728425
198	0x3f379aae	0.717204
199	0xbdbeed06	-0.093225524
200	0x3ece84e8	0.40335774
201	0xbbf0650c	-0.0073362645
202	0xbd271198	-0.040788263
203	0x3d640cbf	0.055676218
204	0xbda2a98c	-0.07942495
205	0xbe444e6f	-0.19170545
206	0xbcb69280	-0.022286654
207	0xbea69038	-0.32531905
208	0x3ed085ee	0.4072718
209	0xbed397d9	-0.41326788
210	0x3dcc81b4	0.099856764
211	0x3dc78172	0.097414866
212	0x3db02ff1	0.08602894
213	0xbf693429	-0.91095215
214	0x3d876906	0.066118285
215	0x3d9055ed	0.07047639
216	0xbea47aa9	-0.32124832
217	0xbf4a6128	-0.790545
218	0x3f25dcd2	0.6479007
219	0x3eeabfc7	0.4584944
220	0x3ead5092	0.33850533
221	0xbe37fa3a	-0.17966548
222	0x3ef81211	0.48451284
223	0xbebab919	-0.36469343
224	0xbe37f85d	-0.17965837
225	0x3ed6c4eb	0.4194711
226	0xbde01778	-0.10941976
227	0x3ccf3c36	0.025297265
228	0x3e55eeb6	0.20891842
229	0xbf14ccfe	-0.58125293
230	0xbe3d08d1	-0.18460394
231	0xbea1345d	-0.31485263
232	0x3dfa7cad	0.12230811
233	0xbe86a200	-0.2629547
234	0xbebc0603	-0.36723337
235	0xbede467d	-0.43413153
236	0xbcd95648	-0.0265304
237	0xbe7c4efe	-0.24639508
238	0xbef43045	-0.47693077
239	0x3ed60915	0.41803804
240	0x3e82ad4d	0.25522843
241	0x3d00422e	0.031313114
242	0x3f12dff0	0.5737295
243	0xbe1c2381	-0.15247919
244	0xbf0230e5	-0.5085586
245	0x3f658ff3	0.89672774
246	0xbcc35922	-0.023846213
247	0x3e7c2c66	0.24626312
248	0x3d7525e2	0.05985058
249	0x3f1e6751	0.618764
250	0xbe112471	-0.14174058
251	0xbf128708	-0.5723729
252	0xbeb07757	-0.3446605
253	0xbe6d69e8	-0.23184931
254	0xbcf68732	-0.030093763
255	0xbd95735f	-0.07297396

transformer_encoder.layers.1.self_attn.in_proj_bias f4 [96]
0	0x3f038253	0.51370734
1	0x3efc839c	0.4931916
2	0xbe3d80fd	-0.18506236
3	0xbef90365	-0.48635402
4	0xbf5b82f3	-0.8574669
5	0x3e3ed57b	0.18636124
6	0x3d590705	0.05298521
7	0x3ece19b5	0.40253988
8	0xbe52cbc7	-0.20585547
9	0xbeaa9b2d	-0.33321515
10	0xbe025114	-0.12726241
11	0xbe84af7b	-0.2591513
12	0xbf1f0aed	-0.62126046
13	0x3bc0094f	0.0058604847
14	0x3e03d950	0.12875867
15	0xbe5ad845	-0.21371563
16	0xbd2077f5	-0.0391769
17	0xbf0a8aef	-0.54118246
18	0x3e4fbc35	0.20286639
19	0xbefa6d99	-0.4891174
20	0xbf14933b	-0.58037156
21	0x3f50cab5	0.81559306
22	0xbd5dfef6	-0.054198228
23	0xbdf0e5dc	-0.11762592
24	0x3f035ccb	0.51313466
25	0xbe6fb178	-0.23407543
26	0xbeaf2929	-0.3421109
27	0x3f78352b	0.9695613
28	0xbe6b73c0	-0.22993374
29	0xbe7221f8	-0.2364577
30	0xbedc2856	-0.42999524
31	0xbf233119	-0.6374679
32	0x3b83cb35	0.004022027
33	0xbba59fd5	-0.005054454
34	0xb9f582b7	-0.00046827432
35	0xba38a127	-0.00070430565
36	0xbc9180b6	-0.01776157
37	0xba93391c	-0.001123223
38	0xbc966cf3	-0.018362498
39	0x3cf1a18f	0.029495982
40	0x3c216262	0.009850116
41	0x3ca6e98e	0.02037504
42	0xbc05922c	-0.008152526
43	0x3cb593e2	0.022165243
44	0xbb3f0b6f	-0.0029151102
45	0x3b890d6a	0.0041825073
46	0xbc534191	-0.01289405
47	0xbcd7d61c	-0.026347212
48	0xbd36f0ac	-0.044663116
49	0xbd3c7b65	-0.046016116
50	0x3c9e4216	0.019318622
51	0xbd395695	-0.045248587
52	0xbc0363c3	-0.0080193905
53	0x3c8d80ae	0.017273273
54	0xbb93f2cf	-0.004515029
55	0xbd9dbe51	-0.077023156
56	0xbbf50291	-0.0074771126
57	0x3c5bd3bc	0.013417181
58	0x3b8d9296	0.004320453
59	0xbb4abede	-0.003093652
60	0xbaac7c0a	-0.0013159525
61	0x3c77632c	0.015099328
62	0x3c1944fe	0.009354828
63	0xbcaa872c	-0.020816408
64	0x3dd706e3	0.104993604
65	0xbed5ed33	-0.4178253
66	0x3eb4426f	0.35206935
67	0x3d8384c3	0.06421807
68	0xbc65f881	-0.014036299
69	0x3ed25402	0.41079718
70	0xbde41f23	-0.11138751
71	0x3e2f19cd	0.17099686
72	0x3de37ed7	0.11108177
73	0xbdf476dd	-0.11936734
74	0xbe66d6f4	-0.22542936
75	0x3e9cf7b1	0.30657724
76	0xbef9653a	-0.48710042
77	0x3eb23c36	0.34811562
78	0x3d967d28	0.073480904
79	0x3dabe201	0.08392716
80	0xbded7770	-0.115950465
81	0xbeb41fd1	-0.35180524
82	0x3e800d73	0.2501026
83	0xbee63e74	-0.44969523
84	0x3f05d757	0.5228171
85	0xbf0dd72f	-0.5540647
86	0xbc46e6a9	-0.012139955
87	0xbe07b557	-0.1325277
88	0x3f2d01f8	0.6758113
89	0xbec491c2	-0.38392454
90	0xbe607475	-0.21919425
91	0x3e605607	0.21907817
92	0x3eafbd1d	0.3432397
93	0x3e62a6c0	0.22133923
94	0xbe717729	-0.23580612
95	0xbf08077d	-0.53136426
